models/MLP-TS-4.pt (torch, 183503 bytes, 7 tensors)

0.weight f4 [256, 15]
0	0xbd4882c0	-0.048952818
1	0xbe759235	-0.23981555
2	0xbe694508	-0.2278024
3	0xbe7f59e8	-0.2493664
4	0x3dc5b9d4	0.096545845
5	0x3c6064e0	0.0136959255
6	0x3e2235b6	0.15840802
7	0xbe46a61a	-0.193993
8	0x3d922520	0.07135987
9	0x3e4d289e	0.20035025
10	0xbe3c2943	-0.18375115
11	0xbd912888	-0.07087809
12	0xbca64720	-0.020297587
13	0xbd2584ec	-0.040409967
14	0xbdfba998	-0.12288207
15	0xbcabba5b	-0.020962885
16	0x3d06b198	0.03288421
17	0xbc82b24b	-0.015954157
18	0xbd1b93f7	-0.037982907
19	0x3d99bd2b	0.07506784
20	0xbd9e61cc	-0.07733497
21	0xbd44dad3	-0.04806025
22	0xbe66b224	-0.22528893
23	0x3c15e9fb	0.009150024
24	0x3e1e61db	0.15467016
25	0xbe293ec8	-0.16527855
26	0xbe40ac08	-0.18815625
27	0x3d571ce9	0.052517805
28	0xbcb3a462	-0.02192897
29	0x3d02d53c	0.031941637
30	0x3e34e50a	0.17665496
31	0xbdee4f16	-0.11636178
32	0x3e15a95a	0.14615384
33	0x3d37f240	0.044908762
34	0x3de36980	0.11104107
35	0x3bddc1c0	0.0067674816
36	0xbe29ebe2	-0.16593888
37	0x3e20ed1e	0.15715453
38	0x3df7216c	0.120669216
39	0x3e7ea2c6	0.2486678
40	0xbe64140c	-0.22273272
41	0x3c0fe9a0	0.008783728
42	0x3c184fc0	0.009296358
43	0x3e23b82a	0.15988222
44	0xbe1ea696	-0.15493235
45	0xbe912c5a	-0.2835415
46	0x3bed22a5	0.007236796
47	0xbe49ce69	-0.19707645
48	0xbda5bb9a	-0.08092423
49	0xbe82316e	-0.25428337
50	0x3d9dc324	0.07703236
51	0xbd73a0d6	-0.059479557
52	0x3d216a95	0.039408285
53	0xbdf1bccf	-0.118035905
54	0xbdefa79e	-0.11701892
55	0x3b974d25	0.0046173506
56	0x3e00739f	0.12544106
57	0x3d930ed3	0.07180562
58	0xbe719614	-0.23592407
59	0x3e37c25e	0.17945239
60	0xbdeedef8	-0.11663622
61	0xbde380ec	-0.11108574
62	0xbe3b1e64	-0.18273312
63	0xbe2d8e7a	-0.16948882
64	0xbda5cad4	-0.08095327
65	0xbd8bd746	-0.068281695
66	0x3e14fd04	0.14549643
67	0x3c37bce0	0.011214465
68	0x3d6ad888	0.057335407
69	0x3e7ea33e	0.2486696
70	0x3df738cc	0.1207138
71	0xbde7312c	-0.11288676
72	0x3e4c1b9c	0.19932407
73	0x3d13ff18	0.03613195
74	0xbe4941b7	-0.19653974
75	0xbd927162	-0.07150532
76	0x3e5bb01c	0.21453899
77	0xbd556c14	-0.052105024
78	0x3e21604e	0.15759394
79	0x3d8f0dbc	0.069850415
80	0x3e30aa4a	0.1725246
81	0xbe7b8f84	-0.24566466
82	0x3d268890	0.04065758
83	0xbe0322f2	-0.128063
84	0x3d672f48	0.056441575
85	0xbe0160bd	-0.12634559
86	0x3e21eb38	0.15812385
87	0x3d409f48	0.047026902
88	0xbe425c1e	-0.18980452
89	0xbdd297d4	-0.10282865
90	0xbe09a31c	-0.13441128
91	0x3e6fde3e	0.23424622
92	0x3e68074a	0.2265903
93	0x3e10fef6	0.1415976
94	0xbb91fec0	-0.0044554174
95	0xbe40c812	-0.18826321
96	0xbdbd0802	-0.09230043
97	0xbc8a9308	-0.016915813
98	0x3e040302	0.12891772
99	0xbe30e6d0	-0.17275548
100	0x3cb0e5c0	0.021593928
101	0x3e5f7a0c	0.21823901
102	0x3e21e5d2	0.15810326
103	0xbe842e29	-0.25816467
104	0xbd3afdd8	-0.04565224
105	0x3df40324	0.119146615
106	0x3e200724	0.15627724
107	0x3ca03b90	0.019559652
108	0xbdd33e18	-0.10314578
109	0xbc4d3b50	-0.012526348
110	0x3df81c14	0.121147305
111	0xbc2629a0	-0.01014176
112	0xbe7cd7d7	-0.24691711
113	0xbd888c1c	-0.06667349
114	0x3d370008	0.044677764
115	0x3ce5c540	0.028048158
116	0xbdccb54a	-0.09995516
117	0xbd779058	-0.06044039
118	0x3d889270	0.06668556
119	0xbc468950	-0.012117699
120	0xbd8e902a	-0.06961091
121	0x3ca32d6e	0.019919124
122	0xbcf2c060	-0.029632747
123	0x3e05bbff	0.13059996
124	0xbe546d05	-0.20744713
125	0x3e332451	0.17494322
126	0x3db2553f	0.08707666
127	0x3e410acb	0.18851773
128	0x3de9acd2	0.11409916
129	0x3e54a3aa	0.20765558
130	0x3d6defc7	0.058089998
131	0xbe280eb5	-0.1641186
132	0xbe31d515	-0.1736644
133	0xbe42780a	-0.18991104
134	0x3e47dfa0	0.195189
135	0x3e3e28b6	0.18570217
136	0xbdc24e20	-0.094875574
137	0xbe5f2287	-0.21790515
138	0x3e7c08a6	0.24612674
139	0xbe82526f	-0.25453517
140	0x3c450e80	0.012027383
141	0x3db90840	0.09034777
142	0x3dc42c60	0.09578776
143	0x3ccf5420	0.025308669
144	0xbe6c517c	-0.23077959
145	0x3df5e034	0.12005654
146	0xbcd35710	-0.02579835
147	0xbdb8c5b2	-0.090220824
148	0x3d10be48	0.035337716
149	0xbe815f1d	-0.25267878
150	0x3cadcc5e	0.021215614
151	0xbe12405f	-0.14282368
152	0x3e60fdea	0.2197186
153	0xbe19eaef	-0.15031026
154	0xbd8a058e	-0.06739341
155	0xbe29a89f	-0.1656823
156	0xbe06541b	-0.13118021
157	0xbdd47403	-0.1037369
158	0xbe2aca26	-0.16678676
159	0x3e693e8d	0.22777767
160	0x3d45fb94	0.048335627
161	0x3e6a077c	0.22854418
162	0x3e2dbdb2	0.16966894
163	0xbe475301	-0.19465257
164	0x3e793b3f	0.24339007
165	0x3e801fb3	0.25024185
166	0xbd1a4fd0	-0.03767377
167	0x3d882420	0.06647515
168	0x3e8269ff	0.25471494
169	0x3e36c922	0.17850164
170	0x3e0946f2	0.1340597
171	0xbd22a920	-0.03971207
172	0x3d982a84	0.07429984
173	0x3d0e3e28	0.034727246
174	0x3e138a76	0.14408287
175	0xbe25ed8a	-0.16203895
176	0x3e5b257a	0.21401015
177	0xbdb3894e	-0.08766423
178	0x3e7f808e	0.24951383
179	0xbd6972f0	-0.05699438
180	0x3d98b2cb	0.07455977
181	0x3dbe0a50	0.09279311
182	0xbd453e55	-0.048155148
183	0xbc5a4ac0	-0.013323486
184	0x3e28ff0f	0.16503547
185	0xbd66c491	-0.056339804
186	0xbe54d273	-0.20783405
187	0xbe0c658c	-0.13710612
188	0x3c900b34	0.017583467
189	0x3e3fad52	0.1871846
190	0xbd860164	-0.06543234
191	0xbe869783	-0.2628747
192	0x3d92034f	0.07129537
193	0xbe159ecb	-0.14611356
194	0x3d669de8	0.056302935
195	0x3e5fedd8	0.21868074
196	0x3c682fe0	0.014171571
197	0x3c5747e0	0.013139695
198	0xbe181fb6	-0.14855847
199	0xbe3360aa	-0.17517343
200	0x3da9f30c	0.08298311
201	0x3cacbad0	0.021085173
202	0x3d61e8d0	0.055153668
203	0x3e292852	0.16519287
204	0xbdef942e	-0.11698185
205	0x3e011fa6	0.12609729
206	0x3dae1d0c	0.08501634
207	0x3e5488ea	0.20755354
208	0x3e382184	0.17981535
209	0xbdf085ca	-0.11744268
210	0x3ac04b00	0.0014670789
211	0x3e73e0a0	0.23816156
212	0xbe05ee09	-0.13079084
213	0x3d8abbbc	0.06774089
214	0xbd821a24	-0.06352642
215	0xbe76bc06	-0.24095163
216	0x3d1ef700	0.038809776
217	0xbc3d0340	-0.011536419
218	0xbe5ad390	-0.21369767
219	0x3e516928	0.2045027
220	0x3d32f7a0	0.043693185
221	0xbe7b2329	-0.24525131
222	0xbdf72260	-0.120671034
223	0x3e7eb896	0.24875101
224	0xbe5a70bd	-0.21332069
225	0x3e1b982c	0.15194768
226	0xbe281868	-0.1641556
227	0x3e72150d	0.23640843
228	0xbcfb4b6e	-0.030675616
229	0xbe6bb5db	-0.23018591
230	0x3dc4cd15	0.09609429
231	0xbd5f981e	-0.05458843
232	0x3ca7a1ff	0.020462988
233	0x3d0c03e9	0.034183417
234	0x3e28881f	0.16458176
235	0xbe107159	-0.14105739
236	0xbe70d66b	-0.23519294
237	0x3e6532fa	0.22382727
238	0xbe57e36e	-0.21082851
239	0x3e706d02	0.23479083
240	0xbe882b06	-0.26595324
241	0xbe2219e8	-0.15830195
242	0xbe789e5d	-0.24279161
243	0x3e387cd7	0.18016373
244	0xbd855c93	-0.06511798
245	0xbd853dbc	-0.065059155
246	0x3e017e85	0.1264592
247	0xbe72bac3	-0.23704056
248	0xbe86ec20	-0.26352024
249	0x3cb1d467	0.021707727
250	0xbe814361	-0.2524672
251	0xbe77d5e8	-0.24202693
252	0x3e57273b	0.21011059
253	0xbcc16324	-0.023606844
254	0x3c6c1386	0.014408952
255	0xbe7082e0	-0.23487425

0.bias f4 [256]
0	0xbe08a04e	-0.13342401
1	0xbd107427	-0.03526702
2	0xbe1156b6	-0.14193234
3	0xbdeb7ce2	-0.11498429
4	0xbb6cd300	-0.0036136508
5	0x3e004666	0.12526855
6	0x3e1c4062	0.15258935
7	0xbdec1526	-0.11527471
8	0x3e207600	0.15670013
9	0xbb309080	-0.0026941597
10	0xbe3efe7e	-0.18651769
11	0x3d14a228	0.036287457
12	0xbd9e2559	-0.07721967
13	0xbdfde222	-0.12396647
14	0xbd165840	-0.036705256
15	0xbe4c444d	-0.1994793
16	0xbdd5a316	-0.10431497
17	0x3e342efe	0.17596051
18	0xbd15b078	-0.036545247
19	0x3e3beb30	0.18351436
20	0x3e3e1f4a	0.18566623
21	0xbdd58ae1	-0.1042688
22	0xbe7844ff	-0.2424507
23	0xbe16270d	-0.14663334
24	0xbe65fe56	-0.22460303
25	0xbe0c41cc	-0.13696975
26	0x3dfb6e4c	0.12276897
27	0xbe3649b5	-0.17801555
28	0xbb8ca760	-0.0042924136
29	0xbe23c383	-0.1599255
30	0x3d8cc800	0.068740845
31	0x3c976fe6	0.018485975
32	0x3d9cdc6c	0.0765923
33	0x3ce08c4e	0.027410652
34	0xbc82c677	-0.015963776
35	0x3e3b18b4	0.18271142
36	0x3e0caa9e	0.1373696
37	0xbe1be4ac	-0.1522395
38	0x3e1c49ff	0.15262602
39	0xbe07f8a5	-0.13278444
40	0x3e8418ed	0.25800267
41	0x3e5ad618	0.21370733
42	0x3dabf854	0.08396974
43	0x3e24b888	0.16086018
44	0xbd3ed787	-0.04659226
45	0xbe8fd2ac	-0.28090417
46	0x3e07115b	0.13190214
47	0xbe05b54a	-0.13057438
48	0x3dceed2c	0.10103831
49	0xbceeba00	-0.029141426
50	0x3defa510	0.11701405
51	0xbdd2c1fd	-0.102909066
52	0x3e0f409c	0.1398949
53	0xbe7f3f9e	-0.24926612
54	0x3d6929fd	0.05692481
55	0xbdd00005	-0.10156254
56	0x3e84f829	0.2597058
57	0xbdb575a8	-0.08860332
58	0x3e50a312	0.20374706
59	0x3e81f650	0.25383234
60	0x3dee92c5	0.11649088
61	0x3e73a8fe	0.23794934
62	0x3e505178	0.20343578
63	0xbdc45dc2	-0.095881954
64	0xbaa88400	-0.0012856722
65	0xbe4f995e	-0.20273349
66	0xbd0545a8	-0.032537133
67	0x3e23af5e	0.15984866
68	0x3e58bd4e	0.21165964
69	0xbe03278f	-0.12808059
70	0x3e52436f	0.20533536
71	0xbe4b6cb5	-0.19865687
72	0xbde25320	-0.11051011
73	0xbe057b4f	-0.1303532
74	0x3d7d7200	0.061876297
75	0x3e13a98e	0.14420149
76	0x3de072f4	0.109594256
77	0xbdeaefec	-0.11471543
78	0x3e7d1fc0	0.24719143
79	0xbe472b68	-0.19450152
80	0xbe31ab91	-0.17350604
81	0xbdf9bf4e	-0.121946916
82	0x3a753800	0.0009354353
83	0xbe2f9d5c	-0.17149872
84	0xbb3f3800	-0.0029177666
85	0xbe1b9956	-0.15195212
86	0xbe2091cc	-0.15680617
87	0x3e6ed8b4	0.23324853
88	0x3dd19168	0.10232812
89	0xbe1c7618	-0.15279424
90	0xbe2f7682	-0.17135051
91	0x3e3a232e	0.18177482
92	0x3db013a4	0.08597496
93	0x3e6a3640	0.22872257
94	0x3b97f680	0.0046375394
95	0xbc8e9d70	-0.017409056
96	0x3d02ae70	0.031904638
97	0xbe5cef12	-0.21575573
98	0xbdd57190	-0.10422051
99	0x3e38e1c3	0.18054871
100	0x3e34b8dd	0.17648645
101	0x3e64a0da	0.22326985
102	0xbcb1dd70	-0.021712035
103	0xbdfcf16e	-0.123507366
104	0x3e478d49	0.1948749
105	0x3e1f60d4	0.15564281
106	0x3e1a38da	0.1506075
107	0xbe0ccf76	-0.13751015
108	0x3dedd368	0.11612588
109	0x3e198f01	0.14995958
110	0x3e0c0fbe	0.1367788
111	0x3d6612b0	0.056170166
112	0x3e1e9a5e	0.15488574
113	0x3c6c4913	0.014421719
114	0x3e3b3c2e	0.18284675
115	0x3d8448b4	0.064591795
116	0xbdcce1aa	-0.100039795
117	0xbddf552d	-0.10904918
118	0xbe0db751	-0.13839461
119	0xbe82196c	-0.2541002
120	0xbda4098b	-0.08009633
121	0xbe70ff41	-0.23534872
122	0xbe6463e3	-0.22303729
123	0x3d015d9a	0.031583406
124	0xbd4e5f8d	-0.050384093
125	0x3e68b030	0.2272346
126	0x3e2ab023	0.16668753
127	0x3e096ddb	0.13420813
128	0xbddba29a	-0.10724373
129	0xbd3fe6c7	-0.046850946
130	0x3d063fe0	0.03277576
131	0x3e1aa9f8	0.151039
132	0x3dcf33de	0.10117315
133	0xbd666137	-0.056245055
134	0xbe80df6f	-0.25170466
135	0x3e112968	0.14175951
136	0x3e6a4e0e	0.22881338
137	0xbde9dd62	-0.114191785
138	0xbce13380	-0.027490377
139	0x3d4d3431	0.0500986
140	0x3e727fa8	0.2368151
141	0x3dade59b	0.084910594
142	0x3e16184e	0.14657709
143	0xbd5c1f44	-0.053740755
144	0xbe340ec8	-0.17583764
145	0x3e6a8fca	0.22906414
146	0xbcc9efa0	-0.024650395
147	0xbe0320f6	-0.12805542
148	0xbc04bb80	-0.008101344
149	0xbdb9ae71	-0.09066475
150	0x3e04eadd	0.12980218
151	0x3db3c9c4	0.08778718
152	0xbdffe4d0	-0.124948144
153	0x3da95318	0.08267802
154	0x3e8204b2	0.25394207
155	0xbe1c4ed3	-0.15264444
156	0x3e7dd9a3	0.24790053
157	0xbe512e25	-0.20427759
158	0x3d85ac7a	0.06527038
159	0xbe4a63e6	-0.1976467
160	0x3e3395a4	0.17537552
161	0xbe37e932	-0.1796005
162	0xbe19fe5a	-0.15038434
163	0x3d5cb7a0	0.053886056
164	0x3e19ce0e	0.1502001
165	0x3e0cad84	0.13738066
166	0x3dbafef0	0.09130657
167	0x3e701ea6	0.23449191
168	0xbe328aca	-0.17435756
169	0xbd6972a8	-0.05699411
170	0xbdc4ac50	-0.096031785
171	0x3e0d4f31	0.1379974
172	0xbe5034c4	-0.20332628
173	0xbe07c28c	-0.13257807
174	0x3e5352f4	0.20637113
175	0x3a4d81ee	0.00078394904
176	0x3d9c8eb6	0.076444075
177	0x3e30ff52	0.17284897
178	0xbcf8c2b8	-0.030366287
179	0xbe8546bd	-0.26030532
180	0x3e7d74fe	0.2475166
181	0x3e4861aa	0.19568506
182	0xbe1c4bb0	-0.15263247
183	0x3d367f99	0.04455528
184	0xbdbff844	-0.09373525
185	0xbd846a96	-0.06465642
186	0x3e48a3bf	0.19593714
187	0xbd58eabc	-0.052958235
188	0x3e02559f	0.12727974
189	0xbdc8847c	-0.097908944
190	0xbe728e3a	-0.23687068
191	0xbb9fe500	-0.004879594
192	0xbe331ad4	-0.17490703
193	0xbc8e278e	-0.017352846
194	0xbe32a26c	-0.17444772
195	0xbe07f693	-0.13277654
196	0x3e02c372	0.12769869
197	0xbe2d1b86	-0.1690503
198	0x3e766974	0.24063665
199	0x3e2f84bc	0.17140478
200	0x3e03b95c	0.12863678
201	0xbe1b1fd8	-0.15148866
202	0x3e3d24aa	0.18471017
203	0x3e2e8f40	0.17046833
204	0xbe286bc5	-0.16447361
205	0xbe279204	-0.16364294
206	0x3ca81a21	0.020520272
207	0x3d8211b8	0.06351036
208	0xbe2b5e34	-0.16735154
209	0xbe25de44	-0.16198069
210	0x3e2c37ea	0.16818205
211	0xbde798d6	-0.11308448
212	0xbdbd9fa7	-0.09258967
213	0xbddb9ffc	-0.10723874
214	0xbd881c77	-0.06646054
215	0xbb432800	-0.002977848
216	0xbd8c1896	-0.06840627
217	0x3e49b97e	0.19699666
218	0x3c3d47c0	0.011552751
219	0xbe480073	-0.19531421
220	0xbd55b7ec	-0.052177355
221	0x3d94d464	0.07267073
222	0x3e30cccc	0.17265624
223	0xbd98b4fa	-0.074563935
224	0xbe65d660	-0.22445059
225	0x3dfd9e84	0.1238375
226	0x3e0514c4	0.12996203
227	0x3e6bfe40	0.23046207
228	0xbe4cfc1e	-0.2001805
229	0x3dc82020	0.09771752
230	0xbe3820b8	-0.17981231
231	0xbe50b2a0	-0.2038064
232	0x3d80a641	0.062817104
233	0x3e4878ca	0.19577327
234	0x3e86b5e1	0.26310638
235	0x3e033b52	0.12815598
236	0x3e5a71e1	0.21332504
237	0xbdb9bb70	-0.09068954
238	0x3e561068	0.20904696
239	0xbe4f941f	-0.20271347
240	0x3a80b44f	0.0009819361
241	0x3e5c3e90	0.2150824
242	0xbe82d391	-0.25552037
243	0x3c8b4dc4	0.017004855
244	0x3e0785d4	0.13234645
245	0xbe425258	-0.18976724
246	0xbdcdc8be	-0.10048054
247	0xbaf89400	-0.0018965006
248	0x3e810890	0.25201845
249	0x3e748ee8	0.2388264
250	0x3dd95318	0.10611552
251	0x3d8db825	0.069198884
252	0x3e228432	0.15870741
253	0x3d42757c	0.047475323
254	0x3d2beb38	0.04197237
255	0xbe37b4ff	-0.17940138

2.weight f4 [128, 256]
0	0xbd4d7ffe	-0.05017089
1	0xbd3e7961	-0.046502475
2	0xbd02f150	-0.031968415
3	0xbce9f7f9	-0.028560625
4	0x3c6dd278	0.014515512
5	0x3d53d92a	0.051720776
6	0x3b9e8d50	0.004838623
7	0xbd6ea816	-0.058265768
8	0xbcdda8fb	-0.027058115
9	0xbc81dea0	-0.015853226
10	0xbd93c700	-0.072156906
11	0xbd0bde8c	-0.034147784
12	0xbdb3fec6	-0.087888286
13	0x3d675500	0.056477547
14	0xbd64b95a	-0.055840828
15	0xbd8f246f	-0.06989371
16	0xbdde2cd6	-0.108483955
17	0x3d6b4984	0.057443157
18	0xbde0306a	-0.10946734
19	0x3ceba690	0.028765947
20	0xbcdde578	-0.027086958
21	0xbdbdc32e	-0.09265743
22	0xbc11bda0	-0.008895308
23	0xbd5f22dd	-0.054476608
24	0xbda05be8	-0.0783003
25	0xbd15360e	-0.036428504
26	0x3cf27ff4	0.029602028
27	0xbdcbb8c4	-0.099473506
28	0x3ade3779	0.0016953788
29	0xbd5019f2	-0.050805993
30	0xbd22faac	-0.03978984
31	0xbdd2f3d4	-0.10300413
32	0xbc246268	-0.0100332275
33	0xbd4a8be6	-0.049449824
34	0xbcd7c8f8	-0.026340947
35	0xbd711232	-0.058855243
36	0xbdce585e	-0.100754485
37	0xbd324598	-0.0435234
38	0xbcd87cea	-0.026426751
39	0xbdb50420	-0.088386774
40	0xbb3bf1e0	-0.0028678104
41	0xbc2c3170	-0.010509834
42	0x3d102338	0.035189837
43	0xbc651813	-0.0139827905
44	0xbd46c883	-0.048531067
45	0xbd973292	-0.073826924
46	0xbd70126a	-0.05861131
47	0xbd45d27c	-0.048296437
48	0xbd014996	-0.031564318
49	0xbcbf4434	-0.023347951
50	0xbdcc306d	-0.09970174
51	0xbd49d210	-0.049272597
52	0xbcfbad40	-0.03072226
53	0xbd6bc78a	-0.057563342
54	0xbc8bdc5c	-0.017072849
55	0xba53a17c	-0.0008073074
56	0xbdbcd3f6	-0.09220116
57	0xbcbbe230	-0.022935003
58	0xbc8792dc	-0.01654952
59	0xbda59658	-0.080853164
60	0xbd9996b0	-0.074994445
61	0x3cb3150c	0.021860622
62	0x3cc2a114	0.023758449
63	0xbd0a2f12	-0.033736296
64	0xbd6b38e6	-0.05742731
65	0xbde99e43	-0.11407139
66	0x3cd3c204	0.02584935
67	0xbc46ad00	-0.012126207
68	0xbd4a5730	-0.049399555
69	0xbd38495b	-0.044991832
70	0xbb587b1c	-0.0033032363
71	0x3d47dff4	0.048797563
72	0xbd8ad5f8	-0.067790926
73	0x3cc2c808	0.023777023
74	0xbcb872fc	-0.022515766
75	0xbb64864a	-0.0034870082
76	0xbc6471e8	-0.013943173
77	0xbdc75a9f	-0.097340815
78	0xbd10a2d7	-0.035311546
79	0x3c496158	0.012291275
80	0x3d393ae4	0.045222178
81	0xbdbd9d9f	-0.092585795
82	0xbca9a438	-0.020708188
83	0xbdd40966	-0.10353355
84	0xbd7bdc78	-0.061489552
85	0xbd7a8072	-0.06115765
86	0xbd794fd8	-0.06086716
87	0xbc64dc78	-0.0139685795
88	0xbcc47428	-0.023981169
89	0xbbbd7fc0	-0.0057830513
90	0x3c8aabec	0.016927682
91	0xbd36e13a	-0.044648387
92	0xbbc7cb10	-0.006097205
93	0x3d078ffc	0.0330963
94	0x3d013d7e	0.031552784
95	0x3b9e0ca0	0.0048232824
96	0x3c167ea8	0.009185471
97	0xbcb6310c	-0.022240184
98	0xbc57fbf8	-0.013182633
99	0xbd25f5d0	-0.04051763
100	0xbd58a6b3	-0.05289335
101	0xbb5b5ca0	-0.0033471957
102	0x3d37a76e	0.044837408
103	0xbd0ee597	-0.034886923
104	0xbdc555db	-0.09635516
105	0x3c884cbc	0.016638152
106	0xbde17f96	-0.11010663
107	0xbdece8d8	-0.11567849
108	0xbd048520	-0.03235352
109	0xbd279699	-0.040915105
110	0xbd85317a	-0.065035775
111	0xbc9509d4	-0.018193163
112	0xbd521c5c	-0.051296577
113	0xbd97e5f3	-0.07416906
114	0xbcb9d16c	-0.022682868
115	0xbbfda900	-0.0077410936
116	0xbd15830a	-0.03650192
117	0xbd80c406	-0.062873885
118	0xbd713a5c	-0.058893546
119	0xbdaa5816	-0.08317582
120	0xbd18a019	-0.037262056
121	0xbbd435a4	-0.006476121
122	0xbd23b750	-0.039969742
123	0xbda834d6	-0.08213203
124	0xbdacb79b	-0.084334575
125	0xbd76d014	-0.060257033
126	0xbd213517	-0.03935727
127	0xbd859318	-0.065221965
128	0x3d39dd46	0.04537704
129	0xbd6ee67a	-0.05832527
130	0xbc8036a2	-0.015651051
131	0x3cee20a8	0.029068306
132	0xbd7b8914	-0.061410025
133	0xbcfd57c9	-0.030925648
134	0xbd07ba04	-0.033136383
135	0xbd636038	-0.055511683
136	0xbd2efb2a	-0.042719997
137	0x3d1ad380	0.03779936
138	0xbce469f0	-0.027882546
139	0xbb4c4a98	-0.003117239
140	0xbd49df68	-0.049285322
141	0xbdd656dd	-0.104657866
142	0xbc61ce3d	-0.013782081
143	0xbd65d838	-0.056114405
144	0xbcc883e1	-0.024476947
145	0xbcf1c7f4	-0.02951429
146	0x3d726478	0.059177846
147	0x3d0907ac	0.033454582
148	0xbc8e670c	-0.017383121
149	0xbcc9f448	-0.024652615
150	0xbd02894b	-0.031869214
151	0xbd58d4a6	-0.052937172
152	0xbd5604c7	-0.05225065
153	0xbc58e5f8	-0.013238423
154	0xbdaedbf1	-0.08538044
155	0x3d7692d6	0.060198627
156	0xbd6961b9	-0.05697796
157	0xbd0ee131	-0.034882728
158	0xbcb70154	-0.0223395
159	0xbc5ded40	-0.013545334
160	0x3d3186e8	0.043341547
161	0xbb5775e0	-0.0032876655
162	0xbd34d992	-0.044152804
163	0xbdb82994	-0.089923054
164	0xbdcd7300	-0.100317
165	0xbd8d267c	-0.06892106
166	0xbcbecb84	-0.023290403
167	0x3d1edae4	0.03878297
168	0x3cf63e18	0.030058905
169	0xbcd7c19c	-0.026337437
170	0x3a421cf9	0.000740483
171	0xbc09b597	-0.008405111
172	0xbdd932cd	-0.106053926
173	0xbdc2fdd7	-0.09521072
174	0xbd78e82a	-0.060768284
175	0xbd014999	-0.03156433
176	0xbdc786f9	-0.09742541
177	0xbd3dade8	-0.046308428
178	0xbd364f74	-0.044509366
179	0xbd35c566	-0.044377707
180	0xbd555154	-0.052079514
181	0x3c7c9d08	0.015418299
182	0xbd726054	-0.059173897
183	0xbde5050d	-0.11182604
184	0x3c242370	0.010018215
185	0xbda29fa5	-0.07940606
186	0xbdedbed2	-0.11608662
187	0xbd066fcc	-0.03282146
188	0xbdd8725f	-0.105686896
189	0xbdfa5d53	-0.122248314
190	0xbca8a350	-0.020585686
191	0x3cfb6f20	0.030692637
192	0x3d46872a	0.048468746
193	0xbc6656f7	-0.01405882
194	0x3d42a816	0.04752358
195	0xbc8d4e04	-0.017249115
196	0x3cd4e5e0	0.02598852
197	0xbd6d9d12	-0.058011122
198	0x3d35b576	0.044362508
199	0x3d3c2edc	0.045943126
200	0xbd6df6e5	-0.058096785
201	0xbca04894	-0.019565858
202	0xbca17da6	-0.019713234
203	0xbc31e9fc	-0.010859009
204	0x3d7d7830	0.061882198
205	0xbc5db0d3	-0.013530928
206	0xbd834ca7	-0.06411105
207	0xbd10f09c	-0.035385713
208	0xbd0f13e8	-0.034931093
209	0xbddc43ea	-0.10755141
210	0x3cb0295c	0.021504097
211	0xbc772218	-0.015083812
212	0xbdebebd2	-0.115195885
213	0x3cd6c090	0.026214868
214	0xbd2fbc38	-0.04290411
215	0x3d794d96	0.060865007
216	0xbd2c33bb	-0.04204152
217	0xbae3bec3	-0.0017375577
218	0x3cf212dc	0.029550008
219	0xbdad2361	-0.084540136
220	0xbaa9d8c0	-0.0012958273
221	0xbd22606a	-0.03964273
222	0xbd75402c	-0.059875652
223	0x3ca1973c	0.019725434
224	0xbd6d20dd	-0.05789267
225	0x3d7abdba	0.061216094
226	0xbbcb1352	-0.0061973715
227	0xbc0f2c40	-0.008738577
228	0xbd48bc74	-0.049007848
229	0x3b1a86e0	0.0023578927
230	0x3cb1132c	0.021615587
231	0xbcacfff0	-0.021118134
232	0xbd02e097	-0.031952467
233	0xbd4c70da	-0.04991231
234	0xbde1c4c5	-0.11023859
235	0xbc83ecae	-0.016104069
236	0xbc698b34	-0.01425438
237	0xbba83cb0	-0.0051341876
238	0xbd9d6eef	-0.076871745
239	0xbd845adc	-0.064626426
240	0xbd9a846d	-0.075447895
241	0xbc5574b0	-0.013028309
242	0x3d72c8de	0.059273593
243	0xbd74391a	-0.05962477
244	0x3d391eda	0.045195438
245	0xbb18c52a	-0.0023310878
246	0x3d4b6f0a	0.049666442
247	0xbc9b3920	-0.018948138
248	0xbc150d5b	-0.0090974225
249	0xbd46ddb8	-0.04855129
250	0xbce74a50	-0.028233677
251	0xbdec269e	-0.11530803
252	0xbd0e7f54	-0.0347894
253	0xbc04d561	-0.008107514
254	0x3d532180	0.05154562
255	0xbca5e6e7	-0.020251704

2.bias f4 [128]
0	0xbdaf286a	-0.0855263
1	0x3dbb2a78	0.0913896
2	0x3b7359e0	0.0037132427
3	0x3cf32fcb	0.029685875
4	0xbd8628cd	-0.06550751
5	0xbd2d0f6b	-0.04225103
6	0x3d27b56a	0.040944494
7	0x3bdc05c0	0.0067145526
8	0x3d3d86a6	0.04627099
9	0x3cc21854	0.023693241
10	0x3d7d13f0	0.061786592
11	0xbd3934b6	-0.045216285
12	0x3c4b7cf8	0.012419932
13	0x3d790ecc	0.060805127
14	0x3bf9b4b3	0.007620418
15	0xbcd28514	-0.025698222
16	0xbdded512	-0.10880484
17	0x3d44fe24	0.04809393
18	0xbdc44cf5	-0.09584991
19	0x3d4dbab8	0.050226897
20	0xba1d7480	-0.00060064346
21	0xba5c4ed9	-0.0008404083
22	0x3cd19c88	0.025587335
23	0xbd5ed8b9	-0.0544059
24	0x3c210f88	0.009830363
25	0x3d6c3b42	0.0576737
26	0x3d1f0770	0.038825452
27	0xbd2336c0	-0.039847136
28	0xbd2102b1	-0.039309207
29	0x3d8589a6	0.06520395
30	0x3d977e6a	0.073971584
31	0x3c2d52d3	0.010578829
32	0x3d1ef7fe	0.038810723
33	0x3d1c7ef8	0.038207024
34	0x3d5eedd2	0.054426022
35	0xbc49a7e1	-0.012308092
36	0x3d648d71	0.05579895
37	0xbd3182b0	-0.043337524
38	0xbdbb4b42	-0.09145214
39	0x3d4db51a	0.05022154
40	0xbd85020b	-0.0649453
41	0x3cc98398	0.024598882
42	0x3d4994b7	0.04921409
43	0x3cea1f64	0.028579421
44	0xbc6ee1e8	-0.014580227
45	0x3d2e62f4	0.042574838
46	0x3daaee4e	0.08346234
47	0x3d5130f6	0.051072083
48	0xbcd49962	-0.025952045
49	0x3d7130b2	0.05888433
50	0x3da012f1	0.07816113
51	0xbd314710	-0.04328066
52	0xbd1a9d12	-0.03774745
53	0xbcec1864	-0.028820224
54	0xbde92e6d	-0.11385808
55	0xbd4afd04	-0.0495577
56	0x3cfe093c	0.031010263
57	0xbd1d5f86	-0.038421176
58	0x3d7e25fe	0.06204795
59	0x3d7eda18	0.06221971
60	0xbdc4cd59	-0.096094795
61	0xbd8dc7e4	-0.06922892
62	0xbcee738e	-0.029107835
63	0x3bd2f320	0.006437674
64	0xbd6246f2	-0.05524344
65	0x3bb36c10	0.0054755285
66	0xbb435780	-0.0029806793
67	0xbc81f43c	-0.01586353
68	0xbcec9328	-0.028878763
69	0x3ac61700	0.0015113056
70	0x3dc8f0cf	0.098115556
71	0xbd941014	-0.07229629
72	0xbdaa3007	-0.08309942
73	0xbbbd26b0	-0.005772434
74	0xbd9939a6	-0.07481699
75	0xbb3b9822	-0.0028624614
76	0xbdbaaff5	-0.091155924
77	0x3d70acb9	0.05875847
78	0xbd423341	-0.04741216
79	0xbd6ff3e0	-0.058582187
80	0xbd2dca6c	-0.042429373
81	0xbc5c8e68	-0.013461687
82	0xbcf75e81	-0.03019643
83	0xbdabb638	-0.08384365
84	0x3c277dfb	0.010222907
85	0xbdb10508	-0.08643538
86	0xbd2aaf9b	-0.041671377
87	0xbdb57d5b	-0.088618
88	0xbd7f0e9a	-0.062269785
89	0x3d77adec	0.0604686
90	0xbcbc0978	-0.022953734
91	0x3c12b309	0.008953818
92	0x3bbbd461	0.0057321046
93	0x3d4c7fec	0.049926683
94	0x3d21a5b8	0.039464682
95	0xbb507560	-0.0031808242
96	0x3d7c95a8	0.06166616
97	0x3d1fc179	0.03900287
98	0xbbaf2f00	-0.005346179
99	0xbd2ccfe0	-0.042190433
100	0xbde0dcaf	-0.10979592
101	0xbd957b84	-0.07298949
102	0x3dcd3b58	0.100210845
103	0x3b022ce7	0.001986319
104	0xbd05bc35	-0.03265019
105	0x3cfb05c0	0.03064239
106	0x3d082db4	0.03324671
107	0xbdaa0201	-0.083011635
108	0xbb976514	-0.0046202037
109	0xbdf6cdd1	-0.12050975
110	0xbc1797b0	-0.009252474
111	0x3b3d8c60	0.0028922781
112	0xbdbe7bad	-0.09300933
113	0x3d763e30	0.0601179
114	0xbce79879	-0.028270947
115	0xbd7ecd96	-0.06220778
116	0x3ce34788	0.02774407
117	0x3c848b04	0.016179569
118	0xbd0b0148	-0.03393677
119	0x3da6805e	0.08129953
120	0xbb0f7e00	-0.002189517
121	0xbde1e229	-0.11029465
122	0x3d8414c2	0.06449272
123	0xbd0f720e	-0.03502088
124	0x3c85c8ce	0.016331103
125	0xbcd5a920	-0.026081622
126	0xbd4827cc	-0.04886608
127	0x3d45bf7e	0.048278324

4.weight f4 [64, 128]
0	0x3cf38592	0.029726777
1	0x3dbcea32	0.09224357
2	0x3c6176b0	0.013761207
3	0x3d722fb2	0.059127517
4	0x3bdd073b	0.0067452467
5	0x3cd3fa38	0.02587615
6	0x3c900d23	0.01758439
7	0xbc3878e8	-0.011259295
8	0x3da07a65	0.07835845
9	0xbd71d283	-0.05903865
10	0x3c7c30bb	0.015392478
11	0x3db5f233	0.088840865
12	0x3da08c09	0.078392096
13	0xbd55ffc3	-0.052245867
14	0x3d2fd819	0.042930696
15	0x3cf67bfb	0.030088415
16	0x3dd7a6d6	0.10529868
17	0xbd8ccd11	-0.06875051
18	0x3dfa2ec2	0.122159496
19	0xbd2c03c5	-0.041995782
20	0x3c93a768	0.018024161
21	0xbd7444c4	-0.059635893
22	0x3d641cbe	0.055691473
23	0xbd455d4c	-0.048184678
24	0xbd2d4cb8	-0.042309493
25	0x3d9568dd	0.07295392
26	0xbd2ba1e7	-0.04190245
27	0x3d9f149f	0.07767605
28	0xbd36af9f	-0.04460108
29	0x3beac4da	0.00716458
30	0xbb70a649	-0.0036720207
31	0x3d200ade	0.039072864
32	0xbd2bbfb3	-0.041930865
33	0x3d7fd116	0.06245526
34	0x3d5e531b	0.054278474
35	0x3d7201d3	0.05908377
36	0x3c4c74a2	0.012478979
37	0x3daa425d	0.08313439
38	0x3c8bfa4c	0.017087124
39	0xbbacf1bf	-0.005277842
40	0xbdc63d13	-0.09679618
41	0xbb2a1f44	-0.0025958577
42	0xbd11883b	-0.03553031
43	0xbcfac880	-0.030613184
44	0x3bd19dd0	0.0063969865
45	0x3d6836a2	0.056692727
46	0x3d728874	0.059212163
47	0x3c265820	0.010152847
48	0xbbcfa751	-0.0063370843
49	0xbd8ca12a	-0.06866677
50	0xbd12e2a7	-0.035860684
51	0x3c85121c	0.016243987
52	0x3d77610a	0.060395278
53	0x3d09147e	0.03346681
54	0x3dc79a4e	0.09746228
55	0x3d97cd4d	0.07412205
56	0xbd49e8d2	-0.0492943
57	0x3de9a10a	0.11407669
58	0x3a677bab	0.00088303786
59	0xbcb98f9c	-0.022651486
60	0x3e01e9d2	0.12686852
61	0x3cdb1235	0.02674208
62	0xbcfb37b6	-0.030666213
63	0x3ca31954	0.019909538
64	0x3da36c63	0.079796575
65	0x3d898b85	0.06716064
66	0x3cdd9460	0.02704829
67	0x3d8d42f1	0.06897534
68	0xbbcba4fe	-0.006214737
69	0xbc4dcd20	-0.012561113
70	0xbcf86f58	-0.03032653
71	0x3d8ecda9	0.0697282
72	0x3dadf031	0.084930785
73	0x3d9879db	0.07445117
74	0x3d722297	0.05911502
75	0x3d2fdabf	0.042933222
76	0x3e15d98b	0.14633767
77	0x3d3d21d1	0.046174828
78	0xbc9e06ba	-0.019290317
79	0x3d9710dd	0.07376263
80	0xbd1e3d32	-0.03863258
81	0xbd82d15a	-0.06387587
82	0xbd9c78cc	-0.07640228
83	0xbb98fbc6	-0.0046686856
84	0xbcd3af41	-0.025840404
85	0x3dc39f2c	0.09551844
86	0xbdc4ad09	-0.09603316
87	0x3d9eff0c	0.0776349
88	0x3daabacb	0.08336409
89	0x3d867ec5	0.06567148
90	0xbd7d0d2e	-0.061780147
91	0x3c99e6c6	0.0187868
92	0x3cedec05	0.029043207
93	0xbd983360	-0.07431674
94	0xbd3fd054	-0.046829537
95	0xbd22b7dc	-0.039726123
96	0xbd93cb9a	-0.07216568
97	0x3dc9591c	0.098314494
98	0x3b7e390e	0.0038791331
99	0xbcd2d138	-0.025734529
100	0x3c7bbd8b	0.015365015
101	0x3dc8099a	0.09767456
102	0x3d7aebef	0.06126016
103	0x3ceb7d17	0.02874617
104	0x3d542868	0.051796347
105	0x3d53232e	0.05154722
106	0xbccc66f0	-0.024951428
107	0x3df44578	0.119273126
108	0xbb87d64b	-0.0041454188
109	0x3d2d3a2c	0.042291805
110	0x3c237c18	0.009978317
111	0x3c7bc3e8	0.015366532
112	0x3d540647	0.0517638
113	0x3c4c3468	0.0124636665
114	0x3d30aad0	0.04313165
115	0xbbfa4370	-0.0076374337
116	0x3d9aee5b	0.07564994
117	0xbd3ff0d7	-0.046860542
118	0xbd54f8df	-0.051995154
119	0x3d819257	0.0632674
120	0x3c884c30	0.016637892
121	0x3dab92cf	0.08377611
122	0xbd55f086	-0.052231334
123	0x3d27c536	0.04095956
124	0x3dd57eea	0.104245976
125	0x3d2fdfe2	0.04293812
126	0x3cc43608	0.023951545
127	0x3d1ace89	0.037794624
128	0x3cd6a28c	0.026200555
129	0xbcd7bfd8	-0.026336595
130	0xbd9f6342	-0.07782604
131	0xbd26f9ec	-0.040765688
132	0xbdf5aa26	-0.11995344
133	0xbdebdad7	-0.1151635
134	0xbd4fd36a	-0.05073873
135	0x3d4afa2e	0.049554996
136	0xbd1625ba	-0.036657073
137	0x3bc86da0	0.006116584
138	0xbc3ed705	-0.011647944
139	0x3c7f10ed	0.015568
140	0x3db4972d	0.08817897
141	0xbd8c9476	-0.06864254
142	0xbc8e96d8	-0.017405912
143	0xbd89bea8	-0.06725818
144	0xbcee50fa	-0.029091347
145	0x3d647ede	0.055785052
146	0xbd74b8ca	-0.05974654
147	0x3d9c813f	0.07641839
148	0xbc4effe8	-0.012634255
149	0x3b9a0108	0.00469983
150	0xbcd0412c	-0.025421701
151	0x3d7a9912	0.061181135
152	0xbd563849	-0.05229977
153	0x3c805e04	0.01566983
154	0xbd5994f7	-0.05312058
155	0xbddeadf3	-0.10873022
156	0xbdfeb52a	-0.12436898
157	0xbd812807	-0.06306463
158	0xbd96c7a6	-0.07362299
159	0xbdc453c3	-0.09586289
160	0xbd40e007	-0.04708865
161	0xbda2a819	-0.07942218
162	0xbd8ac442	-0.067757145
163	0xbe0cb077	-0.13739191
164	0xbe047a34	-0.12937242
165	0x3da3a233	0.079899214
166	0x3c265272	0.010151492
167	0xbd51864a	-0.05115346
168	0xbdb128df	-0.08650374
169	0xbdb1d47a	-0.08683105
170	0xbd474a97	-0.04865512
171	0xbc945c88	-0.018110529
172	0xbc3066a8	-0.010766663
173	0xbdfa861e	-0.12232612
174	0xbd97d572	-0.07413758
175	0xbd7da2b0	-0.06192273
176	0xbe0c651b	-0.13710444
177	0xbd33e660	-0.043920875
178	0x3bc9ef94	0.006162593
179	0xbc508ed8	-0.012729369
180	0x3d50d68a	0.05098585
181	0x3d113ff8	0.035461396
182	0xbdba58ea	-0.0909899
183	0x3d9febd3	0.07808652
184	0x3d85f39f	0.06540608
185	0xbda47f9f	-0.08032154
186	0xbcd68387	-0.026185764
187	0x3da9465d	0.08265374
188	0x3c34b998	0.011030577
189	0xbdf3872e	-0.11891018
190	0xbcafe3e6	-0.021470975
191	0x3c7d5e68	0.015464403
192	0x3c196ce8	0.009364344
193	0x3bf955f0	0.0076091215
194	0x3cd330a8	0.025780037
195	0x3a652c00	0.0008742213
196	0xbd885e42	-0.06658603
197	0xbda1742d	-0.07883487
198	0xbdd96a07	-0.10615926
199	0x3c4a988f	0.012365474
200	0x3b14765e	0.002265356
201	0x3d8ae5dd	0.06782124
202	0xbdd6dcde	-0.10491346
203	0xbe04c296	-0.12964854
204	0x3b4b6a9c	0.0031038886
205	0xbc824a8e	-0.015904691
206	0xbdc8b67c	-0.09800431
207	0xbc9f7c08	-0.019468322
208	0xbc880070	-0.016601771
209	0xbda94d11	-0.082666524
210	0xbde57751	-0.112043984
211	0xbd08f521	-0.0334369
212	0x3c1ef62a	0.009702245
213	0xbe1496f0	-0.14510703
214	0x3da6f515	0.081522144
215	0xbd2c9a9b	-0.04213963
216	0x3b0bd820	0.0021338537
217	0x3d51875a	0.051154472
218	0xbd283766	-0.041068457
219	0xbdb884d3	-0.09009709
220	0xbdfec8f3	-0.12440672
221	0x3db1f6b7	0.08689635
222	0xbc70d55c	-0.014699306
223	0xbc4a1f98	-0.012336634
224	0x3d9d4b9d	0.07680438
225	0xbd9aa154	-0.07550302
226	0xbdf97e98	-0.12182349
227	0x3d0109c4	0.031503454
228	0x3cb42bab	0.021993479
229	0xbd8fc1a3	-0.07019355
230	0xbdf99b28	-0.12187797
231	0xbe12e8e9	-0.1434666
232	0xbcf4c722	-0.02988011
233	0x3d1862fa	0.037203766
234	0xbd0f3675	-0.034964044
235	0x3b1e4922	0.0024152477
236	0xbe04c71d	-0.1296658
237	0xbd83e2ab	-0.06439718
238	0x3d9f10d3	0.07766881
239	0xbc9020a0	-0.017593682
240	0xbce09052	-0.027412567
241	0x3db433f7	0.08798974
242	0x3c31face	0.010863019
243	0xbc0275a8	-0.007962622
244	0x3c81a3d0	0.015825182
245	0xbcc3fb58	-0.023923561
246	0xbd95a203	-0.07306292
247	0xbd876ce1	-0.06612564
248	0x3c2ca720	0.010537893
249	0x3c4bbc99	0.012435102
250	0x3cb0bbf9	0.021574007
251	0x3d278b36	0.040904246
252	0xbdf8a516	-0.12140863
253	0xbce32a74	-0.027730204
254	0xbd404885	-0.04694416
255	0x3ce4242b	0.027849277

4.bias f4 [64]
0	0xbb8b8ef8	-0.0042589866
1	0x3c816fc0	0.015800357
2	0xbd2cb3f6	-0.04216381
3	0x3b6909dc	0.0035558855
4	0xbcb1b3d8	-0.021692201
5	0xbe09c9ea	-0.1345593
6	0x3e171af3	0.14756374
7	0x3c10c783	0.00883663
8	0xbc230c48	-0.009951659
9	0x3bf85b28	0.007579226
10	0x3e09be59	0.13451518
11	0xbd9d1829	-0.07670624
12	0xbca59535	-0.020212749
13	0xbcbc1920	-0.0229612
14	0x3cc77904	0.024349697
15	0x3c2e54e6	0.010640359
16	0xbde0f994	-0.10985103
17	0x3cd59236	0.026070695
18	0xbd91e457	-0.071236305
19	0x3cf4323c	0.02980911
20	0xbdc1a348	-0.094549716
21	0x3d350072	0.044189878
22	0xbe142036	-0.14465412
23	0xbdd8e96a	-0.10591395
24	0x3e08526b	0.1331269
25	0xbd7d77b8	-0.06188175
26	0x3d3749aa	0.044747986
27	0x3cd93f03	0.026519304
28	0x3ddff13e	0.10934685
29	0x3dc80258	0.09766072
30	0xbe1312f1	-0.14362694
31	0x3e028fea	0.12750211
32	0xbc308973	-0.010774958
33	0xbdd35b05	-0.10320095
34	0xbce2e3c5	-0.0276965
35	0x3c913061	0.017723264
36	0x3db88aab	0.09010824
37	0x3db3fa55	0.087879814
38	0x3db4f76f	0.08836257
39	0xbd600ede	-0.05470168
40	0x3e0b5c73	0.13609485
41	0x3dd10aa1	0.102071054
42	0x3dfba58d	0.12287436
43	0x3d0a0dbc	0.033704504
44	0xbb55c4ef	-0.0032618602
45	0xbda0eaba	-0.078572705
46	0x3db7016d	0.08935819
47	0x3c5485cd	0.012971354
48	0xbdc0516e	-0.093905315
49	0x3dab41b9	0.08362145
50	0xbce8a1a3	-0.028397387
51	0xbe0f93fb	-0.14021294
52	0x3e0178fd	0.1264381
53	0xbde4e437	-0.11176341
54	0x3c073dd8	0.008254491
55	0x3db04c83	0.086083435
56	0x3c963b40	0.0183388
57	0x3e12ca3e	0.14334962
58	0xbd880a73	-0.06642618
59	0xbdd9d906	-0.10637097
60	0x3cb054b8	0.021524772
61	0x3df0a815	0.11750809
62	0xba86e18b	-0.0010290606
63	0x3dc440f0	0.09582698

6.weight f4 [1, 64]
0	0x3cd96bed	0.02654072
1	0x3cd56640	0.026049733
2	0x3d18ec62	0.037334807
3	0x3a4d0aba	0.0007821728
4	0x3dbe744e	0.09299527
5	0xbd5526ea	-0.052039064
6	0x3d361a26	0.04445853
7	0x3db7b0cd	0.08969269
8	0xbcd88880	-0.026432276
9	0x3d710c52	0.05884964
10	0x3db651e7	0.089023404
11	0x3b35b9eb	0.0027729224
12	0x3bfb1b4d	0.0076631666
13	0xbd18861c	-0.03723727
14	0x3cebf36b	0.028802594
15	0xbb22911a	-0.0024805726
16	0xbd253bda	-0.040340282
17	0x3c81c711	0.015841993
18	0x3d77e9b4	0.06052561
19	0x3cdce4f0	0.026964635
20	0xbd1e4e18	-0.038648695
21	0x3d3dda24	0.046350613
22	0xbb6403fd	-0.0034792416
23	0xbd098962	-0.033578284
24	0x3dc2f0f0	0.095186114
25	0x3c51631b	0.012779976
26	0xbcc9fbc8	-0.024656191
27	0xbbb2cf81	-0.0054568653
28	0x3dcde1ca	0.100528315
29	0x3e0992ed	0.13434954
30	0x3c20769d	0.009793905
31	0x3de2c26e	0.11072241
32	0xbcf144af	-0.029451696
33	0x3cc6edf4	0.024283387
34	0x3d8199d9	0.06328172
35	0x3d759db4	0.05996485
36	0x3b2274eb	0.0024788927
37	0x3d4c3e2c	0.04986398
38	0x3de838a2	0.11338927
39	0x3de52082	0.11187841
40	0x3d89755a	0.06711836
41	0xb8e394a4	-0.0001085189
42	0x3d9d8e14	0.07693115
43	0xbdd42cd4	-0.10360113
44	0x3d36a487	0.0445905
45	0x3bcf3f60	0.0063246936
46	0x3b3f4afd	0.0029188984
47	0x3d049be3	0.032375228
48	0xbd68d120	-0.056840062
49	0x3d295003	0.04133607
50	0xbb496421	-0.0030729847
51	0xbbea2ef1	-0.007146709
52	0x3df1794a	0.11790712
53	0x3cdbd772	0.02683613
54	0xbc9f0c20	-0.019414961
55	0x3d92b002	0.07162477
56	0xbd0c2278	-0.03421256
57	0x3d6a2ea8	0.0571734
58	0x3ce6c55a	0.028170276
59	0xbd8d6cb2	-0.069054976
60	0x3dbbc7ec	0.091689914
61	0x3dd711c3	0.10501435
62	0x3ca985dd	0.020693714
63	0x3db597fd	0.0886688
