models/MLP-G-4.pt (torch, 435919 bytes, 7 tensors)

0.weight f4 [209, 313]
3.1001433e-38 6.8337e-41 -3.356281e-39 -3.281788e-39 1.6006598e-38 -1.3636356e-38 -3.5538117e-38 8.512479e-39
3.336301e-39 3.77466e-39 6.122937e-39 -1.5423338e-38 -3.197815e-38 1.84203e-40 8.08216e-40 6.5617e-39
8.256525e-39 -4.2781e-39 5.1546136e-38 1.3944907e-38 5.404377e-38 -6.60704e-39 4.382911e-39 -2.3653957e-38
1.77576e-39 1.2485718e-38 -4.57616e-40 -3.9197067e-38 3.1639e-40 3.0087e-39 1.5772214e-38 -3.143293e-39
-1.7982757e-38 1.14466e-39 -5.636493e-39 1.4886806e-38 -8.60472e-40 -6.7767e-39 3.725659e-39 -1.2555304e-38
1.4494775e-38 1.2686371e-38 2.242342e-39 -9.2143804e-38 -6.909772e-39 -7.212297e-39 1.5539705e-38 3.121014e-38
-7.73266e-39 -3.291185e-39 -3.1367534e-38 3.3562343e-38 -2.583916e-39 -9.42425e-40 3.549574e-39 -1.998223e-38
3.627712e-39 -4.322311e-39 -5.590386e-37 -3.836897e-39 -1.2959348e-38 -1.1678968e-38 -4.37391e-40 -9.05654e-40
4.6428095e-38 5.9444327e-37 6.560504e-39 5.8111e-40 1.0274088e-38 -2.843179e-38 1.1923922e-38 -3.019361e-39
3.086873e-39 -1.580292e-39 -7.5403225e-32 9.041281e-39 -1.23676e-40 -4.043117e-39 4.932852e-39 -4.367629e-39
-3.406387e-39 -1.0622711e-38 5.764984e-39 -4.038986e-39 4.984386e-38 -3.691017e-39 5.13474e-40 6.084767e-32
-7.465213e-39 -8.139571e-36 1.8492e-41 5.395543e-39 2.522919e-39 4.871346e-39 2.2313365e-38 4.110799e-39
-1.6437503e-38 2.32e-39 -1.949292e-39 -2.1515507e-38 4.905953e-39 -2.0893993e-38 2.691711e-38 -4.233251e-39
1.0653929e-38 1.07074225e-36 2.6322055e-38 -2.9409076e-38 -3.3859678e-33 -1.4761351e-38 -6.65379e-40 -5.585975e-39
1.862606e-39 4.6829018e-38 -3.4023042e-38 1.7157177e-38 -9.695697e-31 -3.621447e-39 -5.3787e-41 -1.970776e-39
-8.49837e-39 -4.538652e-39 1.323909e-38 2.669491e-38 -5.234358e-39 2.330918e-39 -6.363446e-39 -3.1995282e-38
1.3013727e-38 2.0454139e-38 5.012086e-38 -7.926186e-39 7.542439e-39 7.070575e-39 -5.041414e-39 -1.4095053e-38
-1.540875e-39 -1.2513066e-38 -3.402305e-39 2.0226461e-38 1.600522e-35 -8.925258e-39 -1.6216365e-38 7.397599e-39
-3.071606e-39 -7.4931134e-38 8.76696e-39 -1.5151758e-38 -2.0805148e-38 7.102155e-39 -3.355467e-39 4.077557e-37
-8.692127e-38 -1.5336462e-38 -1.089676e-39 -1.5619659e-32 2.8321027e-38 -5.227257e-39 -4.06836e-40 -6.195e-42
-2.1079083e-35 -1.8088368e-38 9.165102e-39 4.5339e-41 -3.500388e-38 -4.0991147e-36 5.007882e-39 6.038674e-39
1.628717e-39 -3.7426883e-38 -5.4889264e-38 -3.9456322e-38 3.188174e-39 3.6577306e-38 -1.3994804e-38 1.7137084e-38
8.232619e-39 2.786394e-39 -6.79306e-40 -7.22055e-39 5.077011e-39 -5.2072346e-38 -3.2698e-41 1.978538e-39
-4.22856e-40 -3.4524766e-38 -4.05991e-39 -1.03776e-39 -4.9116057e-35 1.2469297e-38 1.3367957e-38 -1.1061154e-38
-4.473675e-38 -3.694727e-39 -1.0660924e-36 -6.994423e-39 5.039705e-38 1.439129e-38 7.941617e-39 8.056932e-39
-2.385196e-39 1.994236e-38 4.95573e-40 -9.548679e-39 -7.04972e-40 -1.7175469e-38 -1.44548e-40 1.8375926e-38
2.5563644e-38 8.06709e-39 -2.7157803e-38 -1.6124348e-38 2.1140406e-38 -1.5460274e-38 8.452428e-39 -1.1209162e-38
4.750577e-39 -4.910745e-39 -5.883349e-39 1.514006e-39 6.112008e-39 1.892812e-39 2.7126156e-38 -7.777426e-39
-2.4021277e-38 -2.0039926e-38 -3.4469655e-38 -6.268266e-39 -2.076527e-39 -6.551552e-39 -2.574592e-39 1.220215e-38
-5.9775637e-38 -9.684303e-35 5.475655e-39 -5.064593e-39 -4.886388e-38 9.796357e-39 8.705003e-39 -3.279988e-39
2.2849065e-38 4.49738e-40 7.24498e-40 1.69586e-39 2.0543348e-38 1.958906e-38 -1.4817214e-38 7.107562e-39
4.4169634e-38 -4.577786e-39 3.606519e-39 -1.6223012e-38 3.7282286e-38 5.302816e-39 -8.914963e-39 9.670743e-39
00000000: b1c9 2801 7fbe 0000 f28b 2480 4abc 2380
00000010: e24b ae00 9d7c 9480 e87c 4181 54b1 5c00
00000020: 4054 2400 371a 2900 42ac 4200 fef1 a780
00000030: 091b 2e81 7c01 0200 facc 0800 5a73 4700
00000040: d5e7 5900 9a95 2e80 6a52 8c01 bad8 9700
00000050: 031f 9301 bdf1 4780 c6b9 2f00 cec8 0081
00000060: 1956 1300 1af5 8700 a6fb 0480 bd68 5581
00000070: f771 0300 08c3 2000 84be ab00 393a 2280
00000080: 9cd0 c380 d976 0c00 4060 3d80 5c1a a200
00000090: a55e 0980 afca 4980 9f91 2800 14b7 8880
000000a0: 89d5 9d00 7124 8a00 bd6a 1800 dcd6 fa81
000000b0: a23d 4b80 f388 4e80 6036 a900 96ec 2901
000000c0: 8333 5480 7cd6 2380 f6c7 2a81 14bb 3601
000000d0: e822 1c80 1943 0a80 c5a6 2600 5496 d980
000000e0: 9680 2700 d810 2f80 213b 3e83 b5c7 2980
000000f0: 641d 8d80 362c 7f80 45c3 0480 98dc 0980
00000100: 52c7 7c01 5047 4a03 0470 4700 e653 0600
00000110: fadf 6f00 22cc 1a81 0bd7 8100 c0e0 2080
00000120: f29c 2100 3635 1180 0ac2 c38b 6a73 6200
00000130: c258 0180 9106 2c80 c9b6 3500 2c8f 2f80
00000140: 9f17 2580 ccab 7380 6ec6 3e00 0dfb 2b80
00000150: 1ab0 8701 0e31 2880 5b97 0500 37f8 9d0b
00000160: fa49 5180 0a1c 2d85 8c33 0000 94c0 3a00
00000170: df78 1b00 550b 3500 95f8 f200 3cc3 2c00
00000180: 12fd b280 3743 1900 d539 1580 7b48 ea80
00000190: cd6b 3500 f483 e380 fa8c 1201 9518 2e80
000001a0: d202 7400 672d b603 974f 0f01 451e 2081
000001b0: c9a5 8c89 a4bc a080 ce3e 0780 6dd3 3c80
000001c0: 3048 1400 20f6 7e01 333d 3981 3bd3 ba00
000001d0: 5a52 9d8d 1f6f 2780 f095 0080 b975 1580
000001e0: ff89 5c80 ea6b 3180 3229 9000 4657 1101
000001f0: 43ff 3880 a761 1900 b34a 4580 ea32 2e81
00000200: fab4 8d00 d1b9 de00 2471 8801 fb4e 5680
00000210: 4021 5200 e3fd 4c00 69e5 3680 467b 9980
00000220: 55c7 1080 5641 8880 3e0c 2580 253f dc00
00000230: 5a32 aa05 fd2f 6180 a194 b080 7f8d 5000
00000240: 6372 2180 61fb cb81 b876 5f00 f0fc a480
00000250: 4a8c e280 eb55 4d00 ad89 2480 88c0 0a03
00000260: 499f ec81 d1ff a680 93dd 0b80 2d34 a28a
00000270: c031 1a01 77eb 3880 186e 0480 4511 0080
00000280: b926 e085 03f7 c480 93cc 6300 637e 0000
00000290: 4a94 3e81 685b ae84 f087 3600 5ec1 4100
000002a0: 33bc 1100 76c5 4b81 3c6c 9581 16d2 5681
000002b0: 55b7 2200 5325 4701 d263 9880 389b ba00
000002c0: 31a5 5900 5557 1e00 a165 0780 f59f 4e80
000002d0: a448 3700 21c1 8d81 265b 0080 5c8b 1500
000002e0: c09a 0480 80f8 3b81 6135 2c80 da4c 0b80
000002f0: a892 8286 54c7 8700 6d90 9100 ff71 7880
00000300: ee91 7381 653b 2880 df62 b583 9b29 4c80
00000310: 9e31 8901 10b5 9c00 ff79 5600 73bb 5700
00000320: f5f8 1980 3027 d900 7565 0500 d5f9 6780
00000330: 2dad 0780 3806 bb80 f192 0180 9b18 c800
00000340: 852e 0b01 c4d7 5700 74dc 1381 1f94 af80
00000350: da32 e600 f458 a880 ee09 5c00 950e 7a80
00000360: adba 3300 2979 3580 6210 4080 6f7c 1000
00000370: cb8d 4200 649c 1400 58b0 1301 4db0 5480
00000380: c6c8 0281 2937 da80 b0ab 3b81 6041 4480
00000390: 839c 1680 1057 4780 ea08 1c80 a1de 8400
000003a0: 8ab9 a281 fab9 0087 e69f 3b00 0626 3780
000003b0: 2705 8581 42ac 6a00 02ca 5e00 46b7 2380
000003c0: e6cd f800 b0e5 0400 9be3 0700 5e77 1200
000003d0: 7fb2 df00 544e d500 5d58 a180 fe64 4d00
000003e0: 7c7b 7001 01d9 3180 8245 2700 28a7 b080
000003f0: ecfb 4a01 18be 3900 4a13 6180 194e 6900

0.bias f4 [209]
-3.7529494e-38 0.0059039197 0.038358573 1.2633765e-16 6.048891e-05 0.05307607 -0.002820057 -1.0604993e-10
0.03063706 0.049795344 2.4677382e-38 -0.008008243 -4.999509e-30 0.045020368 -7.428187e-37 -0.013221067
2.9444958e-38 -0.0068598976 0.026092002 1.3111017e-05 0.0005695594 0.023487268 -9.216121e-39 0.035232924
-4.666905e-39 0.025083862 -0.0054803137 0.008754631 3.0426074e-06 -5.8921107e-10 -6.321864e-38 -0.00911884
-1.0711708e-07 -2.3689076e-37 6.2531944e-36 3.707881e-23 0.004768292 8.36297e-18 -0.0065067834 0.024399158
0.028149221 2.0835792e-38 -0.015406796 -1.6133242e-36 0.038150746 -0.011536328 -0.002253625 0.03711476
0.01537014 -0.016709968 0.0072024153 -0.0012868973 0.0003036523 0.041797798 1.1050379e-31 1.3719328e-05
-2.1982772e-22 -0.0038589323 0.0135283265 0.0056573455 -2.532238e-28 -0.0014381426 -0.0027271863 -0.0016969793
4.120375e-37 -2.6481794e-38 -3.3236804e-05 0.0041826926 -3.7874563e-14 2.7552794e-33 0.0001818925 -4.668857e-31
1.07901357e-16 0.03639214 9.534617e-27 -0.014282654 1.0425154e-05 -9.6015996e-30 3.041487e-39 0.0031182698
1.125796e-38 0.014286706 -0.0057264874 0.03566843 -0.0001283714 5.4026985e-16 -1.5232976e-36 -3.2262447e-27
0.0031681983 0.007875719 0.027434235 0.00026700358 -9.3504056e-08 0.0006379619 2.8429042e-38 -0.0020075443
2.833783e-39 2.935524e-10 2.076556e-39 0.04074934 3.9494852e-38 0.042632125 -1.9546863e-16 -1.4944001e-31
0.027867518 -0.0006793494 0.010309979 -4.563964e-38 2.6923453e-38 -4.196826e-38 0.02211352 -8.933647e-27
-4.0578877e-38 -2.0741076e-07 -4.76073e-38 -0.00086343364 -3.9664757e-15 -0.01401386 1.3903223e-05 -0.006356127
0.00013267693 2.9616555e-37 1.784992e-38 1.4996128e-35 0.03705252 0.020747788 0.030120708 -1.084864e-39
-0.009190351 -0.0025707632 0.033545107 0.045425586 0.01120197 -5.3961115e-24 4.3248218e-26 3.022514e-21
0.009247409 -2.8438963e-38 0.012487078 0.025516354 0.032073107 0.016243076 -0.0067226123 0.010648307
-0.0011943942 0.01088702 -5.702567e-28 0.037789922 -0.00819653 0.02371184 0.016756622 -1.5297783e-33
0.011625856 0.026346315 -0.00079773855 -0.0022267832 0.0033054496 0.051162094 3.482821e-39 0.0017724627
0.0007762187 0.025618264 -7.750998e-39 8.201126e-33 0.01076296 -2.2009232e-21 6.1076666e-21 0.03138494
0.021139637 0.024549011 0.0033388329 8.85799e-40 2.5964277e-07 2.554228e-06 0.03691709 6.7747793e-13
-0.015753977 0.005917617 0.007016411 0.0063957023 0.014296796 -0.0069459938 0.042049043 -9.233231e-37
9.2961954e-29 2.3599757e-26 -0.005084885 2.7487084e-37 1.9025712e-38 0.00023370658 0.017099006 1.2164222e-36
-1.3275818e-35 0.00781405 -8.035541e-06 0.025494017 -2.8480213e-13 0.029618327 -5.657943e-38 1.0768724e-25
0.017012553 0.008204089 1.3344415e-35 1.0101008e-37 0.006801193 0.016491357 1.8194267e-38 5.6551147e-05
0.031024108
00000000: 7b54 4c81 ab75 c13b e11d 1d3d 4ba8 1125
00000010: 79b5 7d38 4b66 593d b5d0 38bb ce34 e9ae
00000020: 92fa fa3c 34f6 4b3d 405b 0601 0135 03bc
00000030: dfcd ca8e 4767 383d a3c4 7c83 2d9d 58bc
00000040: 4850 2001 fec8 e0bb e5be d53c 64f7 5b37
00000050: 7c4e 153a 5f68 c03c cc5a 6480 6650 103d
00000060: 6fd1 3280 ac7c cd3c 3494 b3bb 956f 0f3c
00000070: 992f 4c36 0bf6 21b0 f618 ac81 3067 15bc
00000080: 3d08 e6b3 3138 a182 a1fd 0405 584d 331a
00000090: 553f 9c3b 0245 1a23 db36 d5bb bee0 c73c
000000a0: 3299 e63c b6e1 e200 c96c 7cbc 173f 0984
000000b0: f543 1c3d de02 3dbc 8eb1 13bb a605 183d
000000c0: 0ad3 7b3c 58e3 88bc 3d02 ec3b 1cad a8ba
000000d0: 8633 9f39 2b34 2b3d 2f71 0f0c 112c 6637
000000e0: b1e0 849b 24e6 7cbb eaa5 5d3c 4161 b93b
000000f0: e97f a091 0f80 bcba 98ba 32bb 2d6d deba
00000100: 8735 0c03 3c2e 1081 bf67 0bb8 f80e 893b
00000110: 6692 2aa9 50e6 6409 65ba 3e39 5983 178d
00000120: b8cd f824 ed0f 153d 40da 3c14 cb01 6abc
00000130: b2e7 2e37 5bbe 428f 6e1e 2100 e35b 4c3b
00000140: 9d96 7a00 ca12 6a3c 42a5 bbbb 0f19 123d
00000150: 6f9b 06b9 e1b8 1b26 7c96 0184 049c 7f93
00000160: 8ca1 4f3b 2909 013c c3bd e03c 9dfc 8b39
00000170: 66cc c8b3 e63c 273a 4dc8 1a01 0191 03bb
00000180: 6fdb 1e00 d461 a12f 989c 1600 c8e8 263d
00000190: ca07 5701 069f 2e3d 285c 61a5 f6fb 418c
000001a0: 6c4a e43c 5e16 32ba 30eb 283c 607c 7881
000001b0: d195 1201 387f 6481 6a27 b53c f9f2 3094
000001c0: b3ee 5c81 a3b4 5eb4 7299 8181 0d58 62ba
000001d0: 48e8 8ea7 649a 65bc e341 6937 0f47 d0bb
000001e0: 311f 0b39 518f c902 515e c200 5877 9f05
000001f0: 62c4 173d 44f7 a93c b4bf f63c 29d0 0b80
00000200: 2093 16bc 407a 28bb 9866 093d 2e10 3a3d
00000210: 7888 373c 80c0 d098 a127 5615 ec5f 641d
00000220: 7282 173c 21d6 1a81 9a96 4c3c ac07 d13c
00000230: 175f 033d 3310 853c 5c49 dcbb 3d76 2e3c
00000240: 388d 9cba 795f 323c b8b8 3492 9bc9 1a3d
00000250: bd4a 06bc 553f c23c 2f45 893c 932d fe88
00000260: 607a 3e3c 3ad4 d73c 541f 51ba 39ef 11bb
00000270: 3ea0 583b 588f 513d b0ec 2500 fb51 e83a
00000280: 287b 4b3a 65dd d13c a166 5480 aa54 2a0a
00000290: 2057 303c 0c4c 269d babd e61d 7f8d 003d
000002a0: 082d ad3c 021b c93c 52d0 5a3b 3fa5 0900
000002b0: 0865 8b34 4e69 2b36 6036 173d 6eb1 3e2b
000002c0: 7c0e 81bc 92e8 c13b ece9 e53b 0a93 d13b
000002d0: 1c3d 6a3c 389b e3bb 9e3b 2c3d 6518 9d83
000002e0: c2af eb10 7eb8 e914 1b9f a6bb 4111 bb02
000002f0: f22b cf00 220f 7539 3713 8c3c a9f6 ce03
00000300: 372c 8d85 8006 003c 63d0 06b7 d4d8 d03c
00000310: 5054 a0aa 22a2 f23c 1c06 9a81 734f 0516
00000320: e95d 8b3c 716a 063c f4e6 8d05 e07c 0902
00000330: 8bdc de3b e218 873c 371e c600 5531 6d38
00000340: 4526 fe3c

2.weight f4 [140, 209]
-2.017714e-39 1.8570931e-37 -1.6637074e-05 -3.6455716e-09 -3.023915e-39 -0.013067046 -0.004931553 4.8801435e-38
0.01600166 -0.031677507 7.435542e-39 1.651309e-06 1.8489609e-25 0.0016721472 -1.1339648e-38 0.0012953458
-2.9132566e-38 -0.0001695667 -0.00062707416 4.3381454e-38 -6.6882457e-38 0.014377333 2.3438599e-38 0.004030037
-7.5744184e-38 -0.00024075208 -0.013534329 0.0018063904 -1.6908656e-05 1.7470779e-37 2.280996e-39 -0.024660142
3.522724e-39 1.0744941e-38 -2.391666e-39 -3.360558e-39 -0.012319279 -2.144174e-39 -0.0067579634 0.00037754982
-8.460879e-05 2.0077408e-38 -0.00030940972 -1.4100252e-38 -0.020742675 -0.0026331919 0.0030841746 -0.0030663155
-0.013905779 0.0035221376 1.0797385e-07 -0.004212577 -5.0072624e-05 -0.004984247 -1.7812378e-38 3.507506e-39
2.012176e-39 -0.00030175934 -0.009851065 -2.030707e-39 -7.100473e-39 -0.026738543 0.0042710598 0.0072483504
1.1252742e-38 -5.28493e-40 1.890642e-38 2.0311132e-05 -3.473994e-39 -7.00349e-38 4.5461e-40 -6.8826e-41
-3.8433542e-38 -0.007117418 -6.400505e-39 -0.0027202915 -5.340958e-39 1.155998e-39 -1.7487538e-38 -0.0011656082
8.4003894e-36 -0.029454123 7.3716415e-05 0.007785823 -5.9863473e-34 -3.138752e-39 2.708942e-38 -1.3544493e-38
-8.901953e-05 -0.0011289625 -0.00056542904 2.0780439e-38 -4.383996e-39 -0.009063449 -5.734986e-39 4.0356876e-35
-1.868193e-38 2.3333992e-38 1.078669e-38 -1.2407918e-07 -6.165849e-39 -0.0047959792 -8.9539233e-38 -7.79214e-38
-0.00069481245 -0.011890084 2.1556773e-37 3.555175e-37 -1.488571e-38 9.6083e-40 -0.006674962 1.7054481e-36
1.1662834e-37 9.7355725e-05 2.071497e-39 -1.193375e-13 1.4808741e-37 -1.51681115e-05 -3.273908e-39 1.1831e-39
-5.443436e-39 -3.679741e-39 2.125946e-38 8.718e-41 0.013806114 9.1894335e-06 -0.010782419 3.718379e-35
0.025027951 5.1199037e-05 0.018135855 -5.0868453e-05 -4.935516e-37 1.947076e-39 1.9405753e-38 7.64947e-39
0.014925859 1.0994065e-38 0.0063272384 0.0032759337 0.021256814 0.012132935 -0.033507865 -0.013741567
0.01904393 -2.7402033e-37 -1.964783e-39 0.0032558008 0.0048078746 0.009518725 -0.0066763125 -2.1635953e-38
0.00019779558 0.013391063 -0.026925294 0.0028949091 -0.00074164744 -0.0014955972 2.7795155e-36 -7.3140614e-37
1.82363e-39 0.00027688846 5.797492e-38 1.1238683e-38 -3.795417e-39 -1.215079e-39 1.0507473e-38 -0.0049070176
-0.024049193 0.00047228608 0.00012071771 -1.4948929e-38 5.735534e-39 -7.366759e-06 -0.00017022739 -8.8761e-40
-0.008796543 -0.00010064776 2.596741e-09 -0.01133948 6.271607e-06 1.8318492e-21 0.004388902 8.343614e-39
-3.2739646e-38 -2.6672287e-38 4.502162e-21 -1.0600019e-36 -6.8595225e-38 1.8055593e-38 0.013347846 -7.87929e-24
1.576123e-39 -1.2273554e-37 -2.933094e-39 -4.9927273e-08 2.59334e-40 -0.003806178 -1.371287e-39 3.357417e-38
0.009693202 -0.012894484 3.666441e-39 1.4325547e-38 0.0027701475 0.012069088 6.746004e-39 4.350317e-39
0.016163 -1.3143277e-38 -1.4418939e-27 -1.5321995e-25 -5.3585793e-38 -8.7277645e-27 3.2031115e-26 -6.2067077e-26
3.90804e-39 -4.4615803e-26 -3.917977e-26 -6.47724e-38 -1.5667113e-27 2.028522e-39 1.5269831e-26 1.0349099e-38
-1.0485625e-26 1.466152e-39 -1.0975969e-25 -8.664752e-28 -5.6390735e-29 -7.211582e-29 -1.5809088e-26 8.3587e-40
5.355961e-27 -5.775618e-39 -2.074368e-26 3.8262254e-27 -8.576502e-26 1.8573082e-38 4.75117e-40 -3.489782e-39
-8.607759e-27 -2.5415276e-31 -1.4903315e-38 -2.035107e-37 -1.183436e-39 -2.878151e-26 -2.5729832e-38 -3.19498e-26
9.874033e-27 3.9923314e-26 5.397695e-38 -2.4005268e-27 -4.930554e-39 2.8846902e-27 2.1165487e-27 -6.591276e-26
00000000: 91f8 1580 40c6 7c02 d88f 8bb7 9385 7ab1
00000010: 72ed 2080 2a17 56bc dd98 a1bb a3d9 8401
00000020: ea15 833c 46c0 01bd 44f7 5000 8ca2 dd35
00000030: e9e3 6416 f32b db3a 537a 7b80 98c8 a93a
00000040: df9c 1e81 b7cd 31b9 3c62 24ba ec30 6c01
00000050: 4512 b681 e88e 6b3c 4739 ff00 670e 843b
00000060: fe31 ce81 6572 7cb9 17bf 5dbc 67c4 ec3a
00000070: 10d7 8db7 c8cc 6d02 7dd6 1800 1104 cabc
00000080: ec5b 2600 8600 7500 fe0a 1a80 de97 2480
00000090: cdd6 49bc 1659 1780 e871 ddbb e1f1 c539
000000a0: 0070 b1b8 a59f da00 4538 a2b9 c489 9980
000000b0: 8bec a9bc a191 2cbb dd1f 4a3b 3df4 48bb
000000c0: 11d5 63bc aad3 663b 40df e733 a809 8abb
000000d0: 1205 52b8 e552 a3bb aaf5 c180 8031 2600
000000e0: 21e9 1500 7435 9eb9 5d66 21bc c91c 1680
000000f0: 3b51 4d80 ca0a dbbc 3ff4 8b3b 9283 ed3b
00000100: 1188 7a00 39c1 0580 68df cd00 d361 aa37
00000110: 15d4 2580 34a7 be81 45f3 0400 dcbf 0080
00000120: 8a40 5181 3b39 e9bb 01b2 4580 eb46 32bb
00000130: 6b28 3a80 7496 0c00 246c be80 52c7 98ba
00000140: 12a8 3205 c649 f1bc 3398 9a38 3820 ff3b
00000150: 36ee 4688 902d 2280 247d 1301 897c 9380
00000160: ffaf bab8 b2f9 93ba 4d39 14ba 6947 e200
00000170: ccbc 2f80 dc7e 14bc cf72 3e80 ef92 5606
00000180: 9f6d cb80 ad15 fe00 e774 7500 a03a 05b4
00000190: e123 4380 9727 9dbb bdbf f381 4a1f d481
000001a0: 1324 36ba a0ce 42bc 32b5 9202 e2f3 f102
000001b0: 4e17 a280 6776 0a00 a4b9 dabb 5f15 1104
000001c0: 0cbf 1e02 752b cc38 7e8e 1600 b15c 06aa
000001d0: ee90 4902 8b7a 7eb7 53a6 2380 00e2 0c00
000001e0: 1646 3b80 9f11 2880 ba7e e700 06f3 0000
000001f0: 0a33 623c 512c 1a37 bea8 30bc f4b3 4506
00000200: 6b07 cd3c 8cbe 5638 a591 943c 965b 55b8
00000210: 68f2 2783 a833 1500 584f d300 9c4b 5300
00000220: 978b 743c fbb6 7700 b954 cf3b 0cb1 563b
00000230: c522 ae3c 38c9 463c 8b3f 09bd 4f24 61bc
00000240: 0402 9c3c 137d ba82 0465 1580 465f 553b
00000250: 608b 9d3b 6df4 1b3c f8c4 dabb 3c98 eb80
00000260: 5967 4f39 3066 5b3c 6f92 dcbc 84b8 3d3b
00000270: 1e6b 42ba ea07 c4ba 7d74 6c04 76e2 7883
00000280: 8adb 1300 572b 9139 9fd2 9d01 e060 7a00
00000290: 1454 2980 253b 0d80 8f6a 7200 0ccb a0bb
000002a0: d002 c5bc 2a9d f739 d429 fd38 88c7 a280
000002b0: 5674 3e00 fa2f f7b6 117f 32b9 4caa 0980
000002c0: 601f 10bc db12 d3b8 5a72 3231 3ac9 39bc
000002d0: b270 d236 1e69 0a1d c7d0 8f3b 9ada 5a00
000002e0: 6840 3281 be37 1181 3d16 aa1d 9859 b483
000002f0: e5bb ba81 a69b c400 edb0 5a3c 5b68 1899
00000300: 9729 1100 180f 2782 46f0 1f80 9e6f 56b3
00000310: ebd2 0200 1271 79bb 97ee 0e80 90cb 3601
00000320: 3cd0 1e3c 6343 53bc 8cec 2700 ccfd 9b00
00000330: 5d8b 353b 6dbd 453c 1d75 4900 ea5e 2f00
00000340: 4568 843c 1c1e 8f80 2a7a e492 57ad 3d96
00000350: d9df 9181 06df 2c94 439c 1e15 afab 9995
00000360: 078e 2a00 40ed 5c95 4202 4295 c653 b081
00000370: 5c41 f892 b216 1600 9f39 9714 14b1 7000
00000380: 6fb0 4f94 09f7 0f00 3ce0 0796 694c 8992
00000390: aef7 8e90 d8d5 b690 cd90 9c94 111a 0900
000003a0: e62b d413 13e4 3e80 7a6f cd94 8992 9713
000003b0: 0a58 d495 323e ca00 6f2c 0500 1800 2680
000003c0: 867e 2a94 5ff4 a48c 6148 a280 9180 8a82
000003d0: f0e2 0c80 e684 0e95 2716 0c81 2f35 1e95
000003e0: 4c93 4314 d0b0 4515 72f0 9201 7830 3e93
000003f0: 61b0 3580 788c 6413 b5b0 2713 2d31 a395

2.bias f4 [140]
-0.00030001235 -3.8767112e-26 4.782762e-15 0.038759135 -4.7796213e-08 -0.0043497966 -0.0061489013 -0.0019271558
-2.512354e-10 -2.7190602e-12 0.046856172 2.4652832e-32 -4.2241577e-10 0.026010364 0.030574303 2.5079947e-08
0.00053142896 0.0007579132 0.017121136 0.03523603 -0.0010702179 4.109195e-05 3.806186e-13 -1.3593353e-09
-8.146706e-06 0.027417244 -2.824284e-22 -6.3028696e-05 -0.0060631903 -7.5089605e-26 0.021811504 -3.0254154e-32
9.743977e-24 1.368334e-17 -1.241125e-35 -0.005411194 -0.00013786365 -1.2722566e-06 0.029035257 -1.217763e-35
-0.0033332931 0.00040120908 2.97252e-06 0.02275831 0.008037624 0.02371407 -3.7317207e-07 7.509236e-10
-3.2957755e-20 8.574676e-06 0.0022351532 0.026634105 -5.7233848e-08 0.014533361 0.0023309132 0.0048887827
1.22370625e-29 4.087704e-15 -1.0981368e-05 0.030608026 1.6541808e-15 0.00989785 0.017178336 4.9192454e-25
-3.9417416e-35 0.0070720674 -0.0036229042 0.003335363 -1.9984628e-10 0.032262668 0.026898876 -0.004477727
-7.456597e-09 -0.0018779975 -1.9155017e-26 0.0042520063 -3.773363e-08 -3.3903828e-27 1.918796e-22 0.016844517
0.00925132 0.017739553 0.0066595683 -0.00902475 -8.748103e-34 8.900623e-11 -0.00066640694 -0.01050136
0.0502681 -1.4029884e-11 -0.0105035035 0.005630809 -1.910619e-22 0.0077783815 3.5298162e-34 -9.488425e-25
-1.6034337e-14 0.046014674 -0.00017811032 -8.351549e-29 0.01664885 -1.9479567e-07 -7.4252515e-05 -0.0014435421
0.027450958 -2.6756241e-30 -5.1353618e-05 -8.492079e-06 0.027536513 -0.0023129918 -3.2678717e-32 0.026828649
0.030713186 -0.0071885246 0.006911355 -0.0012300459 0.006369601 -0.00013304001 0.009067045 -2.0292223e-11
6.3114073e-22 0.0045699407 -0.0035187479 6.201894e-26 0.00835039 1.6814548e-29 -1.36996e-08 5.5795804e-21
-3.055672e-16 -0.0070255254 2.229634e-05 -5.3776955e-10 5.292246e-08 -1.62891e-22 -6.717748e-05 1.5278264e-25
0.031170271 0.016096286 0.01803402 -4.0705435e-09
00000000: fa4a 9db9 27f7 3f95 3151 ac27 e6c1 1e3d
00000010: 7e48 4db3 bd88 8ebb b97c c9bb 9e98 fcba
00000020: 3d1e 8aaf 3c56 3fac 42ec 3f3d 3c01 000b
00000030: bc39 e8af b013 d53c f676 fa3c 636f d732
00000040: 984f 0b3a b2ae 463a a041 8c3c a853 103d
00000050: 8e46 8cba 255a 2c38 ec44 d62a 5cd3 bab0
00000060: d6ad 08b7 219a e03c aeb7 aa9b 462e 84b8
00000070: baad c6bb b1e9 b995 0aae b23c ab16 1d8b
00000080: d679 3c19 bf69 7c23 a3fa 8385 6350 b1bb
00000090: 7e8f 10b9 67c2 aab5 59db ed3c a97e 8185
000000a0: 6173 5abb 5f59 d239 817b 4736 a36f ba3c
000000b0: 3db0 033c 0244 c23c 6158 c8b4 8d69 4e30
000000c0: 7ba3 1b9f f4db 0f37 a67b 123b c42f da3c
000000d0: 48d1 75b3 561d 6e3c 3cc2 183b 1532 a03b
000000e0: 7632 780f 6a46 9327 9e3c 38b7 afbd fa3c
000000f0: 8064 ee26 982a 223c 95b9 8c3c 473e 1817
00000100: 3594 5186 cdbc e73b 3f6e 6dbb 1b96 5a3b
00000110: babb 5baf dc25 043d 085b dc3c e6b9 92bb
00000120: 761a 00b2 2427 f6ba bdb3 bd94 6a54 8b3b
00000130: 9110 22b3 914e 8693 dcf7 671b 83fd 893c
00000140: d992 173c 8a52 913c 8238 da3b 8cdc 13bc
00000150: 515a 9188 0eba c32e d0b1 2eba e50d 2cbc
00000160: ece5 4d3d fbd0 76ad e316 2cbc a682 b83b
00000170: cbfa 669b cbe1 fe3b b698 ea07 86d3 9297
00000180: aa6c 90a8 e279 3c3d 20c3 3ab9 a7bc d390
00000190: 2b63 883c 0729 51b4 04b8 9bb8 3c35 bdba
000001a0: d5e0 e03c 8a12 598e 8764 57b8 3479 0eb7
000001b0: 4194 e13c 9095 17bb 77ad 298b c1c7 db3c
000001c0: 389a fb3c b78d ebbb a678 e23b 7e39 a1ba
000001d0: 16b8 d03b a880 0bb9 f18d 143c 067e b2ad
000001e0: 26c0 3e1c 71bf 953b cb9a 66bb 2c8d 9915
000001f0: 13d0 083c 1085 aa0f 7a5b 6bb2 64ca d21d
00000200: c225 b0a5 6136 e6bb 0709 bb37 2bd2 13b0
00000210: dc4c 6333 53ec 449b a3e1 8cb8 c022 3d16
00000220: cc58 ff3c 5cdc 833c 15bc 933c e1dc 8bb1

4.weight f4 [94, 140]
0.0068235467 -1.4710282e-38 -4.208766e-37 0.01962019 -0.031979367 0.0048092785 0.027646791 0.004226898
-2.80514e-39 -8.6660776e-08 0.0326694 8.331723e-39 -2.2625791e-38 -0.0027658301 0.021898672 3.8901138e-38
-0.006181281 -0.0020782948 0.015481378 0.044289753 0.0030264596 -0.03009218 1.99414e-38 -2.651932e-39
-0.00087700895 0.03746565 -1.2613702e-37 0.008874129 -0.0020331764 -1.2293399e-37 -0.022460613 5.16096e-39
-2.975828e-39 -6.197735e-33 -1.3882055e-36 -0.011020619 -0.0146819735 -2.1433538e-08 0.02683453 1.5080626e-38
0.009748984 -4.46331e-39 3.396365e-07 -0.01855444 0.00023446637 0.014037618 -0.014631165 0.0035224368
6.6222653e-37 -5.0259e-41 -2.1935203e-38 -6.950234e-39 1.61692e-40 -0.021463742 -0.015304165 -0.039662324
-1.9710526e-27 -1.6758602e-33 0.008980594 0.02613729 1.0375204e-38 0.0022839278 0.007380697 -8.082998e-39
4.946597e-34 -1.2067317e-38 -0.0002740585 0.011025088 -2.5249386e-38 -0.018889226 -0.039350495 0.0032895484
-9.146785e-39 -0.0090160305 5.7149054e-37 -0.007898683 -5.0014926e-38 -3.278172e-39 1.1168806e-38 -1.620593e-39
-0.00043142118 -0.041545045 -4.654947e-37 -0.038139224 -1.6384446e-37 -0.0010592412 -2.5396113e-38 3.9560364e-05
-0.0007718054 6.263603e-38 0.035215415 0.03640255 -2.8080385e-37 -0.04607992 -3.75593e-40 -4.340015e-37
-1.624949e-32 0.011570737 0.03835291 -1.947019e-37 0.009912483 -4.563284e-07 0.03368761 -3.1309284e-38
5.174634e-19 6.2281433e-30 -0.0014818934 0.00019057454 0.012688411 -0.00015668164 -1.7847492e-38 -0.002994884
-0.05895607 -0.021001872 -0.00793926 -0.024841255 -0.013050994 0.00036694587 -0.0035190564 -2.3952897e-15
1.515775e-39 -0.007195796 -0.019365935 -1.3056206e-37 0.033572614 1.3382843e-38 4.0717345e-38 -1.7212621e-32
6.0025547e-31 6.83034e-40 0.00017818334 3.052012e-38 -0.005119259 -2.0166452e-38 -0.033952188 7.33008e-40
-2.7006626e-33 5.294639e-33 -0.04192773 0.004656229 4.7161e-38 4.7556916e-29 -5.206865e-39 -0.0008767838
2.6029128e-27 -0.00011319125 -1.3122156e-05 2.4624288e-07 -1.3218003e-11 -5.9472358e-12 -0.0049219956 1.5993545e-38
9.207374e-38 -8.104229e-05 -0.008086997 2.283968e-39 -0.00014554618 -5.983709e-05 -0.0008090807 -0.0040564775
-0.0016413104 -3.5875835e-29 -6.053888e-39 2.9976208e-12 4.042722e-38 -0.00014419737 1.9319734e-25 7.673261e-05
-0.00040415284 2.5878334e-38 0.0030974143 -2.972821e-39 -3.15979e-40 -9.046864e-20 4.214926e-36 -3.2973282e-06
1.5586239e-19 -2.8112447e-07 -0.0042100023 3.372878e-39 8.0404645e-16 3.7298418e-05 7.236351e-37 8.0723345e-05
-0.00017170845 -0.0009960764 -9.419961e-08 2.0832895e-21 5.026653e-24 -1.9779386e-06 2.6628459e-05 7.308033e-05
2.7070245e-11 0.0064599304 -0.00062755233 0.0038559043 -1.8758387e-38 -5.235053e-39 4.892271e-38 -0.0001379026
-6.643726e-16 -0.00017053167 -0.00030837793 1.0305057e-28 -5.34678e-40 0.00014695775 1.0873625e-37 -0.00010164931
2.4498903e-11 -1.7150927e-05 0.00021720758 0.0052095316 2.7950705e-37 0.008706679 2.549871e-38 -0.00036415583
1.1737755e-37 1.736383e-39 1.677692e-39 -8.9353605e-05 -0.00014546256 -0.0007652475 0.00017515471 -0.0024529586
2.2436885e-38 2.4084946e-38 -0.0001308253 -0.00016794662 -0.0001319947 -2.6212655e-38 -0.00014340536 -0.0011228592
1.2725097e-31 0.001928882 1.6857737e-35 -4.8476242e-26 -2.8709515e-16 0.00065317017 0.00074852415 1.9775054e-30
-0.00013686452 1.6751777e-08 -2.1480202e-09 2.1501768e-05 -0.00015856732 5.251801e-30 1.5093236e-34 -2.0177616e-38
-0.0007400097 -9.972346e-05 -2.5187616e-31 -0.0004019657 0.00021710253 -2.4086556e-05 0.0002927851 -3.58119e-06
00000000: 0f98 df3b 482e a080 8637 0f83 85ba a03c
00000010: ccfc 02bd 2797 9d3b 867b e23c ca81 8a3b
00000020: 978b 1e80 441a bab3 59d0 053d 74b9 5a00
00000030: 805f f680 ee42 35bb d864 b33c 46cc 5301
00000040: 588c cabb 0034 08bb 9ba5 7d3c 2c69 353d
00000050: 9157 463b e083 f6bc 8324 d900 82e0 1c80
00000060: 13e7 65ba 9575 193d 56b0 2b82 cb64 113c
00000070: 0a3f 05bb 3e54 2782 52ff b7bc a832 3800
00000080: 6667 2080 d0b8 008a e130 ec83 d48f 34bc
00000090: a98c 70bc d91c b8b2 17d4 db3c a636 a400
000000a0: 34ba 1f3c e499 3080 4957 b634 7bff 97bc
000000b0: 16db 7539 0afe 653c 8eb7 6fbc afd8 663b
000000c0: 1158 6103 1a8c 0080 6cda ee80 6dae 4b80
000000d0: bbc2 0100 bbd4 afbc 52be 7abc f674 22bd
000000e0: b229 1c93 9b39 0b89 5723 133c df1d d63c
000000f0: d9f9 7000 f3ad 153b c6d9 f13b 1c04 5880
00000100: fe60 2408 c566 8380 82af 8fb9 92a2 343c
00000110: 8278 0981 94bd 9abc fc2d 21bd 7795 573b
00000120: 8499 6380 f9b7 13bc d977 4203 7a69 01bc
00000130: 5127 8881 36b2 2380 169e 7900 8ea5 1180
00000140: 5f30 e2b9 232b 2abd 4f66 1e83 e037 1cbd
00000150: 7603 5f82 3dd6 8aba 0445 0a81 9eed 2538
00000160: fc52 4aba f182 aa01 0a3e 103d d71a 153d
00000170: ee1a bf82 4cbe 3cbd 0017 0480 ddae 1383
00000180: 8ebe a88a 3093 3d3c f117 1d3d db81 8482
00000190: f867 223c 4cfd f4b4 05fc 093d c676 2a81
000001a0: 6eba 1821 bda4 fc0e 173c c2ba f7d4 4739
000001b0: 0ee3 4f3c e84a 24b9 8c57 c280 d145 44bb
000001c0: ec7b 71bd 1e0c acbc ac13 02bc e37f cbbc
000001d0: d6d3 55bc a462 c039 f89f 66bb 4c99 2ca7
000001e0: 5d81 1000 b6ca ebbb 4fa5 9ebc 3db6 3182
000001f0: 7083 093d ecb9 9100 b2af 5d01 ffbe b28a
00000200: 46cb 420d 0570 0700 bad6 3a39 d72a 2601
00000210: 75bf a7bb dd97 db80 7311 0bbd 54fb 0700
00000220: be5c 6089 42ee db09 69bc 2bbd 4893 983b
00000230: 6c62 8001 6824 7110 9fb2 3880 f7d7 65ba
00000240: 5839 4e13 1761 edb8 3b27 5cb7 5d33 8434
00000250: 9888 68ad f03f d1ac b148 a1bb 7f27 ae00
00000260: 08a6 fa01 40f5 a9b8 537f 04bc c6de 1800
00000270: c19d 18b9 96f9 7ab8 7d18 54ba 33ec 84bb
00000280: 3d21 d7ba 7fe9 3590 c7eb 4180 56f0 522c
00000290: 521b 5c01 b033 17b9 ae2a 6f16 82eb a038
000002a0: 7ae4 d3b9 22e5 0c01 fdfd 4a3b 045f 2080
000002b0: d270 0380 f09c d59f 7b48 b304 ab47 5db6
000002c0: 8402 3820 74ed 96b4 0ff4 89bb 36ba 2400
000002d0: 28c0 6726 df70 1c38 823d 7603 044a a938
000002e0: a30c 34b9 c78e 82ba c94a cab3 ae68 1d1d
000002f0: 8f75 c218 babc 04b6 2e60 df37 b442 9938
00000300: c61c ee2d d3ad d33b 5382 24ba 57b3 7c3b
00000310: c042 cc80 3301 3980 272e 8501 f399 10b9
00000320: 0c7e 3fa6 bfd0 32b9 c9ad a1b9 d2a1 0211
00000330: 77d2 0580 ac18 1a39 0e01 1402 8f2c d5b8
00000340: a07e d72d 56df 8fb7 37c2 6339 b8b4 aa3b
00000350: ff38 be02 75a6 0e3c 04d4 0a01 2bec beb9
00000360: 1bc4 1f02 54e8 1200 b944 1200 5a63 bbb8
00000370: 4f87 18b9 e49a 48ba bca9 3739 d1c1 20bb
00000380: e850 f400 8421 0301 262e 09b9 d41a 30b9
00000390: 0f68 0ab9 1cb7 0e81 155f 16b9 e72c 93ba
000003a0: 632e 250c 8ad2 fc3a 2043 b305 f00a 7095
000003b0: c47f a5a5 8239 2b3a 9b38 443a 2e6f 200e
000003c0: 4a83 0fb9 8ce5 8f32 5f9c 13b1 b25e b437
000003d0: 1745 26b9 d209 d50e 9f9f 4807 fcb6 db80
000003e0: 36fd 41ba a022 d1b8 1b7a a38c ecbe d2b9
000003f0: 04a6 6339 7c0d cab7 f380 9939 6054 70b6

4.bias f4 [94]
-0.024458874 -0.00017356942 0.005553155 5.2211013e-30 3.8913407e-05 -0.0011289624 -0.0058365217 -0.006314275
0.020475144 -0.025447318 -1.3220826e-13 -0.00572091 0.066757254 -3.582406e-10 0.0031524838 0.030796664
3.8785183e-13 -6.3219356e-38 1.2887071e-11 0.0033212113 0.01702819 0.00055777177 0.047809217 -0.0110783605
0.023702648 0.024429683 -0.011198647 -0.018097568 0.0060162405 7.791559e-05 0.00057711743 -0.0005214813
-0.025105666 -0.003714257 0.006621356 0.0026629905 -1.2823948e-24 -0.0019376246 0.026045443 0.0073706536
-1.1232846e-28 0.0054132477 4.056446e-15 0.028577752 0.065181024 0.042607952 7.149667e-05 0.00014737039
0.004353723 -3.7146237e-06 0.019043284 0.0012675195 6.0542872e-05 0.014320746 0.040898163 0.011149079
0.015277922 0.05345786 2.0427118e-05 0.0006645256 -0.02402304 0.05305969 0.0023684858 -0.008016258
0.009366112 0.04481678 0.00061979936 1.1158941e-07 -0.0001411892 0.0058039604 -0.0065107867 2.7208491e-06
2.9621802e-07 -0.0028074335 -1.2641726e-06 0.00027449708 -0.00042552658 -6.2793233e-09 0.001765545 -2.1008775e-06
0.0013966915 0.00050569186 -3.7161325e-08 1.0307147e-10 -6.4027176e-06 0.0024535852 0.0073560267 -0.0011718491
0.003167674 0.026933676 0.010324973 -0.019320838 0.0047078556 -0.012890076
00000000: fa5d c8bc 3000 36b9 3ef7 b53b 04cb d30e
00000010: f436 2338 b1f9 93ba 4b40 bfbb fae7 cebb
00000020: 7dbb a73c e576 d0bc 70da 14aa 7976 bbbb
00000030: 07b8 883d e2f1 c4af e799 4e3b 4949 fc3c
00000040: 5757 da2a 7619 ac81 35b6 622d aea8 593b
00000050: b47e 8b3c 6e37 123a 99d3 433d 0382 35bc
00000060: 0e2c c23c c220 c83c 887a 37bc 5a41 94bc
00000070: e223 c53b 9d66 a338 b249 173a 05b4 08ba
00000080: 66aa cdbc e46a 73bb f6f7 d83b 9185 2e3b
00000090: e470 c697 e5f7 fdba 415d d53c 8685 f13b
000000a0: ab64 0e91 9d61 b13b 1c26 9227 e41b ea3c
000000b0: a17d 853d ad85 2e3d 7cf0 9538 7087 1a39
000000c0: ada9 8e3b c048 79b6 a900 9c3c e622 a63a
000000d0: 6aef 7d38 90a1 6a3c d584 273d a0aa 363c
000000e0: 4050 7a3c a1f6 5a3d e75a ab37 8f33 2e3a
000000f0: f7cb c4bc 1e55 593d 9938 1b3b 9f56 03bc
00000100: 5274 193c cd91 373d 087a 223a eda2 ef33
00000110: 300c 14b9 262f be3b 7058 d5bb d597 3636
00000120: e507 9f34 ebfc 37bb a4ac a9b5 60ea 8f39
00000130: 3619 dfb9 83c1 d7b1 dc69 e73a cdfc 0cb6
00000140: 3111 b73a 6890 043a 4f9b 1fb3 14a8 e22e
00000150: edd6 d6b6 54cc 203b d30a f13b bb98 99ba
00000160: c098 4f3b 03a4 dc3c 132a 293c bc46 9ebc
00000170: 5b44 9a3b e630 53bc

6.weight f4 [1, 94]
-0.076100424 -0.0034621684 -0.048630755 7.183692e-20 -0.0026913926 -0.014731173 0.06597509 0.059687145
0.10897368 0.10469739 -5.664876e-13 -0.0243601 0.12152017 -0.006753631 0.14094184 0.048650604
-2.6368658e-05 -6.066403e-38 4.39722e-30 -0.04349035 0.04059733 -0.0035903796 0.072749995 0.06267218
0.10171083 0.043479964 -0.026852962 -0.05813953 0.02772219 0.002141234 0.013485892 -0.014550885
-0.053441964 0.069478765 -0.036309533 0.0663795 -1.5329817e-10 -0.014687324 -0.06826734 -0.011868709
-0.008929488 0.032876637 -1.7805307e-13 0.054101672 0.084367335 0.101948194 0.0022049122 0.003407541
0.12545066 -8.072196e-05 0.10085832 0.043861743 -0.036093526 0.10235262 0.07933751 -0.034302805
0.07409128 0.10633125 -0.0029145333 0.01627172 0.12001248 0.084590435 0.104449265 -0.0020814557
-0.052706465 0.105700895 0.013712464 -1.3424982e-07 -7.913381e-05 0.030380204 -0.020471284 -0.00039102402
8.0482805e-06 -0.025992488 4.3382228e-05 -0.0026174458 -8.6985376e-05 1.04705485e-07 0.07795568 -0.0016179895
-0.02082247 0.014239479 -1.7243691e-07 -1.2886705e-09 -0.00046832502 -0.031479914 0.033745814 -0.009413318
-0.052028164 0.06458733 0.089417644 0.07502216 -0.013823036 0.0639013
00000000: 8ada 9bbd 8ce5 62bb 0b31 47bd c19e a91f
00000010: 1362 30bb 055b 71bc f31d 873d 827a 743d
00000020: 982d df3d 966b d63d bc73 1fab d58e c7bc
00000030: 91df f83d 904d ddbb 0f53 103e db45 473d
00000040: 4332 ddb7 a924 a581 585f b20e f022 32bd
00000050: 6349 263d 934c 6bbb f3fd 943d 465a 803d
00000060: c54d d03d 0c18 323d befa dbbc b723 6ebd
00000070: a519 e33c f253 0c3b eef3 5c3c d666 6ebc
00000080: f6e5 5abd e24a 8e3d 4eb9 14bd faf1 873d
00000090: 998d 28af 1aa3 70bc bfcf 8bbd f974 42bc
000000a0: fd4c 12bc a7a9 063d 4e78 48aa b799 5d3d
000000b0: c8c8 ac3d 37ca d03d 4a80 103b 0d51 5f3b
000000c0: 2376 003e 4649 a9b8 cf8e ce3d 5fa8 333d
000000d0: ced6 13bd 409e d13d b47b a23d 1981 0cbd
000000e0: 2bbd 973d 33c4 d93d c101 3fbb 454c 853c
000000f0: 1ac9 f53d c03d ad3d 7fe9 d53d 0869 08bb
00000100: bce2 57bd b679 d83d 3eaa 603c 4f26 10b4
00000110: a4f4 a5b8 e8df f83c 65b3 a7bc 5b02 cdb9
00000120: 1a07 0737 33ee d4bc 50f5 3538 7489 2bbb
00000130: eb6b b6b8 73da e033 3aa7 9f3d b812 d4ba
00000140: e293 aabc b44c 693c 1927 39b4 101d b1b0
00000150: 8589 f5b9 15f1 00bd 0d39 0a3d 513a 1abc
00000160: 7c1b 55bd 5d46 843d 9920 b73d 38a5 993d
00000170: 047a 62bc afde 823d
