models/MLP-YD-4.pt (torch, 183503 bytes, 7 tensors)

0.weight f4 [256, 15]
0	0x3d9991c2	0.07498504
1	0x3e77b6d3	0.24190836
2	0x3e2ebbab	0.17063777
3	0x3e4e53a2	0.20149091
4	0x3e5667c9	0.20938028
5	0x3df3fb84	0.11913207
6	0xbe384af7	-0.17997347
7	0xbe02f240	-0.12787724
8	0xbe177537	-0.14790808
9	0x3db318bf	0.08744954
10	0x3ceb7cb5	0.028745988
11	0x3cabc37a	0.020967234
12	0x3e808d48	0.2510779
13	0xbe1fcdf3	-0.15605907
14	0x3deb8932	0.11500777
15	0xbde13fbc	-0.109984845
16	0x3e336f14	0.17522842
17	0xbe558916	-0.20853075
18	0x3ddc1448	0.10746056
19	0xbdffad3e	-0.12484215
20	0x3cc2ee40	0.023795247
21	0xbe21582a	-0.15756288
22	0x3e79c20e	0.24390432
23	0xbd027610	-0.031850874
24	0xbe365206	-0.17804727
25	0x3d8c03b8	0.06836647
26	0xbdd9249c	-0.10602686
27	0x3c9961a0	0.018723309
28	0xbdf0f5c4	-0.11765626
29	0xbe48852c	-0.19582051
30	0x3e4e8926	0.20169505
31	0xbd300b00	-0.04297924
32	0xbe44455a	-0.1916708
33	0xbad6e800	-0.0016396046
34	0x3c2ac240	0.010422289
35	0x3dab9260	0.08377528
36	0xbe2b4232	-0.1672447
37	0xbe25e21e	-0.16199538
38	0xbe4d5bf5	-0.2005461
39	0x3ddb802c	0.10717806
40	0x3e144a3c	0.14481443
41	0xbe7c977e	-0.24667165
42	0x3e315daa	0.17320886
43	0x3e459ff8	0.19299304
44	0xbd7da638	-0.061926097
45	0x3e7d3e0a	0.24730697
46	0xbdfad6ce	-0.12248002
47	0xbe177d8a	-0.14793983
48	0x3da1e1b4	0.079043776
49	0x3e677692	0.22603825
50	0xbddaccbc	-0.10683581
51	0xbe767982	-0.24069789
52	0xbe5c2410	-0.21498132
53	0x3e16f0ae	0.1474025
54	0x3e68c1ca	0.22730175
55	0xbe23e914	-0.16006881
56	0x3d2b2900	0.041787148
57	0x3e68125c	0.22663254
58	0x3e0a0c24	0.13481194
59	0xbe156042	-0.145875
60	0x3d8b6cc0	0.06807852
61	0x3e063973	0.13107853
62	0xbda8b43f	-0.08237504
63	0xbe31dcaf	-0.1736934
64	0xbe41ae68	-0.18914187
65	0xbdb37b84	-0.08763793
66	0x3cbf6cce	0.023367312
67	0xbd94d101	-0.07266427
68	0x3e407b31	0.18796994
69	0x3daeb3b1	0.08530367
70	0x3d602248	0.054720193
71	0x3dea7c5a	0.114494994
72	0xbe29fa2f	-0.16599344
73	0x3e64b5a2	0.22334912
74	0x3d4e6713	0.050391268
75	0x3d770670	0.060308874
76	0x3da04c40	0.078270435
77	0x3d1b8648	0.037969857
78	0x3c2424c0	0.0100185275
79	0xbd50ebb4	-0.051006034
80	0xbdf0a6c2	-0.117505565
81	0x3e400a56	0.18753943
82	0x3e57620a	0.21033493
83	0x3dc6842c	0.096931785
84	0xbdaca79a	-0.08430405
85	0x3e5ce1ba	0.21570483
86	0xbdeaafd8	-0.11459321
87	0xbb7c1600	-0.0038465261
88	0x3e41b9e2	0.18918565
89	0xbcb05cd8	-0.021528646
90	0x3c0cec0b	0.008601199
91	0xbd0b1cde	-0.033963077
92	0x3bf0e6c9	0.0073517305
93	0xbd4f138f	-0.050555762
94	0x3e5a64a9	0.21327461
95	0xbe397174	-0.18109685
96	0x3d3e766b	0.04649965
97	0xbe0dadab	-0.1383578
98	0xbe75d943	-0.2400866
99	0xbe0a56c0	-0.13509655
100	0x3e28b0a9	0.1647364
101	0x3dcc44f5	0.0997409
102	0xbe45e42f	-0.19325326
103	0xbe642c53	-0.22282533
104	0x3e525fba	0.2054433
105	0x3e417b3e	0.1889467
106	0x3dfce944	0.123491794
107	0x3e38a578	0.18031871
108	0xbd30827c	-0.04309319
109	0x3e27fd54	0.16405231
110	0x3bb2bc40	0.00545457
111	0x3e294014	0.1652835
112	0x3e6954b8	0.22786224
113	0xbdf7d93e	-0.121019825
114	0x3d29ab38	0.041423053
115	0xbd5583f0	-0.05212778
116	0xbe125666	-0.14290771
117	0xbdeb365e	-0.11484979
118	0xbda1cd76	-0.07900517
119	0xbe3edc0c	-0.18638629
120	0xbe5385ea	-0.20656553
121	0xbe7d6d52	-0.24748734
122	0x3c35fade	0.011107175
123	0x3d9774d4	0.0739533
124	0x3e2a317c	0.1662044
125	0xbe3d9311	-0.18513133
126	0xbceb0e1f	-0.028693257
127	0x3e669935	0.22519381
128	0xbe81d15d	-0.25355044
129	0xbd49b6e5	-0.049246687
130	0xbdf9e231	-0.12201346
131	0xbe8193b4	-0.25308
132	0x3db0d1e2	0.08633782
133	0x3e43b913	0.19113569
134	0x3e450b42	0.19242576
135	0xbdc866fe	-0.09785269
136	0xbc349750	-0.011022404
137	0xbe1b1f16	-0.15148577
138	0xbdefcad2	-0.11708607
139	0xbe2cd0ab	-0.16876476
140	0x3d7a8c50	0.06116897
141	0xbe17a67c	-0.14809602
142	0xbd6a6718	-0.057227224
143	0x3c125740	0.008931935
144	0xbe6688c7	-0.22513114
145	0xbe78f4da	-0.24312153
146	0x3e692e84	0.2277165
147	0x3dc49128	0.09597999
148	0xbe29fdcb	-0.1660072
149	0xbc897b08	-0.016782299
150	0xbe2fa488	-0.17152607
151	0x3e1411da	0.14459935
152	0x3d7deca0	0.06199324
153	0x3d5cbf28	0.05389324
154	0x3e82a07b	0.25513062
155	0x3e56faac	0.20994061
156	0x3e81cabf	0.25349995
157	0x3d5c66d0	0.053808987
158	0xbe684bbf	-0.22685145
159	0xbde59c82	-0.11211492
160	0x3e0f9680	0.14022255
161	0x3e65f1aa	0.22455469
162	0xbd45abfc	-0.04825972
163	0x3e6c450a	0.23073211
164	0xbe8302f0	-0.2558818
165	0xbdcf1e2c	-0.10113177
166	0x3e61f4fe	0.22066113
167	0xbe498599	-0.1967987
168	0x3e0264aa	0.12733713
169	0x3e13aa0a	0.14420334
170	0x3e09bc42	0.13450721
171	0x3e215f0a	0.15758911
172	0xbe768f91	-0.24078204
173	0x3d56cb98	0.052440256
174	0xbd28c7c8	-0.04120615
175	0x3dffcc38	0.124901235
176	0x3e491110	0.19635415
177	0x3dc36028	0.09539825
178	0x3e64732e	0.22309563
179	0xbe5c12a2	-0.21491483
180	0xbe788836	-0.2427071
181	0x3e6e8355	0.23292287
182	0x3e3b672c	0.18301076
183	0xbe125456	-0.14289984
184	0x3dfd34d2	0.1236359
185	0x3d154aad	0.03644817
186	0xbdc63da0	-0.09679723
187	0xbdb0686a	-0.086136654
188	0xbcdbde5e	-0.026839431
189	0xbd25b1e8	-0.040452868
190	0xbdb8cefe	-0.090238556
191	0x3e0f0dec	0.13970155
192	0xb87e7393	-6.0665956e-05
193	0x3d794b05	0.06086256
194	0x3e44bb4c	0.19212073
195	0x3e833814	0.25628722
196	0x3e01304b	0.12616079
197	0x3cc319fa	0.023816098
198	0x3d6d94a6	0.05800309
199	0xbc82aca9	-0.015951471
200	0x3dbf4e7c	0.093411416
201	0x3d9d14bc	0.076699704
202	0x3e8de6a7	0.27715036
203	0xbe071977	-0.13193308
204	0xbc0461bf	-0.008079945
205	0xbd46bfd2	-0.048522778
206	0xbe6159e1	-0.22006942
207	0x3e567451	0.20942809
208	0xbd2d2f7a	-0.042281605
209	0x3e47395d	0.19455476
210	0xbcca20f0	-0.024673909
211	0xbc12fdc0	-0.0089716315
212	0xbdee23c2	-0.11627914
213	0x3e47d104	0.19513327
214	0xbda9c080	-0.082886696
215	0x3e7766b0	0.24160266
216	0xbd978a5a	-0.07399435
217	0xbe4e9a6e	-0.20176098
218	0x3e610de2	0.21977952
219	0xbe39f770	-0.18160796
220	0xbdf96768	-0.12177926
221	0xbca2d0d8	-0.019874975
222	0x3d66b788	0.056327373
223	0x3e7f4602	0.2492905
224	0xbd29a2e4	-0.04141511
225	0xbe017d6a	-0.12645498
226	0xbc6668ea	-0.014063099
227	0xbe6925c9	-0.2276832
228	0x3d425a24	0.047449246
229	0x3e3797ec	0.17929047
230	0xbde81add	-0.11333249
231	0xbdac287a	-0.08406158
232	0x3e774051	0.24145629
233	0xbd02c31e	-0.03192436
234	0xbdb511a2	-0.08841254
235	0x3e166545	0.14687069
236	0x3dff3783	0.1246176
237	0x3ce98c0a	0.028509159
238	0xbe71ea54	-0.23624545
239	0x3d87a664	0.06623533
240	0xbe715d06	-0.23570642
241	0xbe08c7eb	-0.13357513
242	0xbdb0e0fd	-0.08636663
243	0x3dbb6553	0.091501854
244	0x3cf9357e	0.030421015
245	0x3e693f52	0.22778061
246	0xbe567eef	-0.20946859
247	0xbd421fbf	-0.047393557
248	0xbde30df5	-0.110866465
249	0xbdeff76f	-0.11717116
250	0xbe14293c	-0.14468855
251	0x3d205f2a	0.039153256
252	0x3cf9d7ec	0.030498467
253	0x3db63d1c	0.088983744
254	0x3e2d1044	0.16900736
255	0xbe3f6abe	-0.18693063

0.bias f4 [256]
0	0xbdb68d59	-0.08913679
1	0xbdb4931c	-0.088171214
2	0xbd57d2b8	-0.05269119
3	0x3e7289f4	0.23685437
4	0x3dcfaff8	0.10140985
5	0xbe4fcd5d	-0.20293184
6	0xbdf60a6d	-0.12013707
7	0x3e66ae46	0.22527418
8	0x3ddb0c07	0.106956534
9	0xbd42d720	-0.04756844
10	0xbe2f5dc6	-0.17125615
11	0x3e827023	0.2547618
12	0x3e23585b	0.15951674
13	0x3d8e03e3	0.06934335
14	0xbe246054	-0.16052371
15	0x3df3f27c	0.119114846
16	0x3e3539df	0.17697857
17	0x3e0f4f4a	0.1399509
18	0xbe4d3da2	-0.20043042
19	0xbe5ecb67	-0.2175728
20	0xbe4b0128	-0.1982466
21	0x3e6749c6	0.22586736
22	0x3d36f94d	0.044671346
23	0x3dbcb555	0.09214274
24	0xbdf30c2c	-0.11867556
25	0xbe2f3b3e	-0.17112443
26	0xbe399e4f	-0.18126796
27	0x3e43f48a	0.19136253
28	0xbd98ba62	-0.07457425
29	0x3e5e1612	0.21688107
30	0x3e5ea494	0.21742469
31	0x3e81b54b	0.25333628
32	0x3e1cb419	0.15303077
33	0x3e46e93c	0.1942491
34	0xbe62eda9	-0.22160973
35	0x3e093cdc	0.13402122
36	0x3d9b8c5c	0.07595131
37	0xbe369531	-0.1783035
38	0x3e2d8022	0.1694341
39	0xbe398925	-0.18118723
40	0xbdc9ef67	-0.098601155
41	0x3e81042f	0.25198504
42	0x3e3310ab	0.17486827
43	0x3e7ae5a2	0.2450166
44	0x3c7a8e1a	0.015292669
45	0xbe7b52cc	-0.24543303
46	0x3e264c49	0.16240038
47	0x3ba3f800	0.005003929
48	0xbd9097d6	-0.070602104
49	0xbe1f72cb	-0.15571134
50	0x3e646103	0.22302632
51	0x3da7a6bc	0.08186099
52	0xbe23f28f	-0.16010498
53	0xbb221234	-0.0024730088
54	0x3e0b31c1	0.13593198
55	0x3e1cb884	0.15304762
56	0x3d756e30	0.059919536
57	0xbe620bba	-0.22074786
58	0xbe07bf1a	-0.13256493
59	0xbe0cf22c	-0.13764256
60	0x3d719a0f	0.058984812
61	0x3e2d45f0	0.1692121
62	0x3b4b83f2	0.0031053987
63	0xbd56868e	-0.052374415
64	0xbdc72000	-0.097229004
65	0x3dd8a9b4	0.10579243
66	0x3e3256fe	0.17415997
67	0x3d051870	0.03249401
68	0xbe5e10b7	-0.21686064
69	0xbb8c6aca	-0.004285191
70	0xbdf98184	-0.12182906
71	0xbe7013b6	-0.23445019
72	0x3dfae456	0.12250583
73	0x3e4c5f22	0.19958165
74	0x3d910719	0.07081432
75	0xbdf8e123	-0.121523164
76	0xbddc354a	-0.107523516
77	0x3e4b1734	0.1983307
78	0xbdac7a86	-0.08421807
79	0xbcf015cb	-0.029307267
80	0x3dcab60f	0.09898006
81	0x3e18d869	0.14926304
82	0x3d60a5a8	0.054845482
83	0xbe36e774	-0.1786173
84	0xbccfec68	-0.025381282
85	0x3e4b03f8	0.19825733
86	0xbbc7b740	-0.006094843
87	0xbe714774	-0.23562413
88	0x3e43e8eb	0.1913182
89	0x3dbe07e8	0.09278852
90	0x3ddbd210	0.107334256
91	0x3cd78f50	0.026313454
92	0x3e6c1ed8	0.23058641
93	0xbe62b672	-0.2213991
94	0x3dd657f8	0.104659975
95	0x3e5d5014	0.21612579
96	0xbdae8ace	-0.08522569
97	0xbd9f8f2a	-0.07790978
98	0x3e655d8e	0.2239897
99	0xbe2a94ff	-0.166584
100	0xbbfbcd0b	-0.007684355
101	0x3e5a5870	0.21322799
102	0x3cd11870	0.025524348
103	0xbd36d2c0	-0.04463458
104	0x3e1befed	0.15228243
105	0xbd2285c0	-0.039678335
106	0xbe423d63	-0.1896873
107	0xbe2baf72	-0.16766146
108	0x3c08880b	0.008333216
109	0x3e393f20	0.18090487
110	0x3e0f847f	0.14015387
111	0x3defdd34	0.11712113
112	0xbe1d817b	-0.15381424
113	0xbe1a3124	-0.15057808
114	0xbd442921	-0.047890786
115	0xbdbeeb2a	-0.09322198
116	0x3d982320	0.074285746
117	0x3e805519	0.25064924
118	0x3e466906	0.19376001
119	0x3e09bcf8	0.13450992
120	0xbe7cce89	-0.24688162
121	0xbd0c9ae3	-0.0343274
122	0xbe23f018	-0.16009557
123	0x3dde0f2c	0.108427376
124	0x3e83e4ae	0.25760406
125	0x3e763768	0.24044573
126	0x3e3931b0	0.1808536
127	0x3d5d3a90	0.054010928
128	0x3e79e21c	0.2440266
129	0xbd8d62d2	-0.06903614
130	0x3e63cac6	0.2224532
131	0xbc1eed10	-0.009700075
132	0x3e1f28f7	0.1554297
133	0xbd919ae9	-0.07109625
134	0xbe42a65a	-0.1900877
135	0xbdf3bd41	-0.11901332
136	0xbd2691cc	-0.040666386
137	0x3dba93f4	0.09110251
138	0x3dfb7e55	0.12279955
139	0x3e843796	0.2582366
140	0xbe7383a7	-0.2378069
141	0xbe00f614	-0.12593871
142	0xbe49ba9e	-0.19700095
143	0x3ba9dbc9	0.005183671
144	0xbd9aa69e	-0.07551311
145	0x3e7a5292	0.2444556
146	0x3dfe1110	0.12405598
147	0x3d4c6cf8	0.04990861
148	0x3d9d7901	0.07689095
149	0x3c466ea0	0.012111336
150	0xbe2e483f	-0.17019747
151	0x3cb71b05	0.022351751
152	0x3e715ea6	0.23571262
153	0x3e6f986a	0.23397985
154	0xbe320463	-0.17384486
155	0xbd7c20c7	-0.061554696
156	0xbd4aee08	-0.04954341
157	0xbd79dacc	-0.060999677
158	0xbe746862	-0.23867944
159	0x3ca57d52	0.020201359
160	0xbdec8fe4	-0.115508825
161	0xbe54260e	-0.20717642
162	0xbd11dba0	-0.03560984
163	0x3d2276e3	0.03966416
164	0x3e549565	0.20760114
165	0x3d1d2ae0	0.038370967
166	0x3e162916	0.1466411
167	0xbda9bee7	-0.08288365
168	0x3d4af070	0.049545705
169	0x3d2bc6c0	0.04193759
170	0xbe8232f9	-0.25429514
171	0x3e883b65	0.26607814
172	0xbe07c89f	-0.13260125
173	0xbde9e50c	-0.1142064
174	0xbe14eba4	-0.14543015
175	0xbdd22e49	-0.102627344
176	0x3b4bd200	0.0031100512
177	0xbda77a3c	-0.08177611
178	0x3d1b3000	0.037887573
179	0x3e024600	0.12722015
180	0xbdd18a68	-0.10231477
181	0xbccc14c0	-0.024912238
182	0xbde8051a	-0.11329098
183	0x3bbc3d00	0.0057445765
184	0x3e0d8d08	0.1382333
185	0x3e36695a	0.17813626
186	0x3e581002	0.21099856
187	0x3e58005e	0.2109389
188	0x3e89858e	0.26859707
189	0xbcd83998	-0.02639465
190	0xbd8a4dee	-0.06753145
191	0x3dfa9c9c	0.12236902
192	0x3cf3c6f2	0.02975795
193	0x3dcb2030	0.09918249
194	0x3dd67891	0.10472215
195	0xbe38fa80	-0.18064308
196	0xbe06970d	-0.13143559
197	0xbe0dc75e	-0.13845584
198	0x3d52f028	0.051498562
199	0x3e3b219c	0.1827454
200	0x3d8f79df	0.07005667
201	0xbe174391	-0.14771868
202	0x3e46a3c0	0.19398403
203	0xbda8a42e	-0.0823444
204	0xbe6785f3	-0.22609691
205	0xbe2640c1	-0.16235639
206	0xbe4ceb05	-0.20011528
207	0xbe800793	-0.2500578
208	0xbe093578	-0.13399303
209	0x3dd298cd	0.10283051
210	0x3d3d4518	0.04620847
211	0xbe075eea	-0.132198
212	0x3e231748	0.1592685
213	0x3e3bace6	0.18327674
214	0xbe193ba2	-0.14964154
215	0xbe47c8d0	-0.19510198
216	0xbdca206a	-0.09869464
217	0x3e4734fe	0.19453809
218	0xbe49258e	-0.19643232
219	0xbe1113b0	-0.14167666
220	0x3e73b2ea	0.23798719
221	0xbd278dac	-0.040906593
222	0xbdfe2212	-0.12408842
223	0xbdd2cd12	-0.1029302
224	0xbe7e4571	-0.24831177
225	0xbb4b6e69	-0.0031041151
226	0x3e65b68c	0.22432917
227	0xbd0f81f9	-0.03503606
228	0x3b5880ec	0.0033035828
229	0x3e758cae	0.23979446
230	0xbe33a6f2	-0.17544153
231	0xbe04238c	-0.12904185
232	0x3e62e8b2	0.22159079
233	0x3d4b0da8	0.04957357
234	0xbe12f759	-0.14352168
235	0x3e0554e4	0.13020664
236	0xbd086166	-0.03329601
237	0xbe4bb2ab	-0.19892375
238	0xbdc22a2f	-0.09480702
239	0x3e21e331	0.15809323
240	0xbdff0c5f	-0.124535315
241	0x3e07412c	0.13208455
242	0x3e813a3f	0.2523975
243	0x3dc22ea9	0.09481556
244	0x3d08ce98	0.03340015
245	0xbe05da7f	-0.13071631
246	0x3e39bce0	0.18138456
247	0x3e8d081c	0.2754525
248	0xbe6a5af7	-0.22886263
249	0x3de4ce50	0.111721635
250	0x3dbfd78f	0.093672864
251	0xbe2096e1	-0.15682556
252	0xbd843ae8	-0.06456548
253	0xbe2784e8	-0.16359293
254	0x3dc21ea6	0.09478502
255	0x3e73e412	0.2381747

2.weight f4 [128, 256]
0	0xbb73f80c	-0.0037226705
1	0xbb1649a0	-0.0022932068
2	0x39069e00	0.00012838095
3	0x3d2a29c8	0.041543752
4	0xbd62fe03	-0.055418026
5	0x3c481508	0.0122120455
6	0x3c4adec9	0.012382218
7	0xbd5e7cfc	-0.054318413
8	0xbab6645c	-0.0013915407
9	0x3c7a2148	0.015266724
10	0xbc71d208	-0.014759548
11	0xbc43b998	-0.0119461045
12	0xbd5e2313	-0.054232668
13	0xbd4659d3	-0.048425507
14	0x3c6b7060	0.014370054
15	0x3ada0727	0.0016634212
16	0xbba7c098	-0.0051193945
17	0xbd68bce2	-0.056820758
18	0xbc0a36a0	-0.008435875
19	0x3d62e953	0.055398297
20	0xbc895240	-0.016762853
21	0x3d3ee580	0.046605587
22	0x3cf8089d	0.030277545
23	0x3d669ff9	0.056304906
24	0x3cca1d7d	0.024672264
25	0xbd16347a	-0.03667114
26	0xbd4db28a	-0.050219096
27	0xbc336200	-0.010948658
28	0xbcc44950	-0.02396074
29	0x3cf17b98	0.02947788
30	0x3cd56a7c	0.026051752
31	0x3d59ce8a	0.053175487
32	0x3c965a21	0.018353524
33	0xbc603491	-0.013684408
34	0xbbc4f4c0	-0.006010622
35	0xbd7a59f9	-0.06112096
36	0x3d196a5a	0.03745494
37	0x3d1d3a62	0.038385756
38	0x3c55ad09	0.013041743
39	0xbd76e3e4	-0.060275927
40	0x3cd4df11	0.025985273
41	0xbce6e797	-0.028186603
42	0xbd734d32	-0.05939979
43	0x3c702f50	0.014659718
44	0x3c6021a8	0.013679899
45	0xbcbfd1a0	-0.023415387
46	0x3c4963a1	0.01229182
47	0x3c631320	0.01385954
48	0xbd7f70ff	-0.06236362
49	0xbd0920ff	-0.033478733
50	0x3c1925af	0.009347363
51	0xbd5820be	-0.0527656
52	0x3d600b71	0.05469841
53	0xbd10181c	-0.035179242
54	0x3c499560	0.01230368
55	0x3cd26e15	0.025687257
56	0xbccffb78	-0.025388464
57	0xbd399414	-0.045307234
58	0x3c6961c8	0.014244504
59	0x3c443050	0.011974409
60	0x3d2c6029	0.042083893
61	0xbd0d67ad	-0.0345227
62	0x3d465c6f	0.048427995
63	0x3d3443e0	0.044010043
64	0xbb009c07	-0.001962425
65	0xbd101f16	-0.035185896
66	0x3d070362	0.03296221
67	0xbd28d275	-0.041216332
68	0xbcc77508	-0.024347797
69	0x3d3806fd	0.04492854
70	0x3cdfff5c	0.027343445
71	0xbd12f9cd	-0.03588276
72	0xbcd8831f	-0.02642971
73	0xbd39cb42	-0.045359857
74	0xbaed62d8	-0.0018111123
75	0x3d444896	0.047920786
76	0x3d35e39e	0.044406526
77	0xbceecbeb	-0.02914997
78	0x3d429d16	0.04751309
79	0xbd263743	-0.040580045
80	0xbb85c607	-0.0040824446
81	0x3b132b33	0.0022456169
82	0xbcf91ebc	-0.030410163
83	0xba72202a	-0.000923636
84	0xbd2b921a	-0.04188738
85	0x3cf1b9f0	0.029507607
86	0x3d684094	0.05670221
87	0x3d786e74	0.06065221
88	0x3c703c92	0.014662879
89	0xbcc80a64	-0.024419017
90	0xbd35e60c	-0.044408843
91	0x3c5ff4f8	0.013669245
92	0xbd47ee2c	-0.048811123
93	0xbb77d84c	-0.0037818132
94	0x3d411634	0.047140315
95	0xbd444ad1	-0.047922913
96	0xbd4df387	-0.050281074
97	0x3b5a3ae0	0.0033299252
98	0xbd65e343	-0.056124937
99	0xbd682a2d	-0.056680847
100	0xbcaa1097	-0.020759864
101	0xbd63ca45	-0.05561282
102	0xbd12182a	-0.035667576
103	0x3d61c56e	0.055119924
104	0x3d2cb879	0.042168114
105	0xbd34d23e	-0.044145815
106	0xbd773049	-0.060348783
107	0x3d787f3c	0.060668215
108	0xbc9167ef	-0.017749755
109	0xbd18d99c	-0.037316903
110	0xbc80cfaf	-0.015724031
111	0x3ab094c0	0.0013472065
112	0x3c1a12c7	0.009403891
113	0x3c7e3bf7	0.015517226
114	0xbd829167	-0.063753895
115	0x3cee2098	0.029068276
116	0x3c3e2650	0.011605814
117	0x3c994934	0.018711664
118	0xbd59fe78	-0.053221196
119	0x3d3493e0	0.044086337
120	0x3d2629b6	0.040567122
121	0x3c835f61	0.016036691
122	0xbd5836b0	-0.05278653
123	0x3d112b65	0.035441775
124	0x3d03b9fb	0.032159787
125	0xbd301922	-0.04299272
126	0xbd42c064	-0.04754676
127	0xbcd5560c	-0.026042007
128	0xbc50d829	-0.012746849
129	0xbc736f70	-0.014858112
130	0x3c32cac8	0.010912605
131	0x3d45cf22	0.04829324
132	0x3d1d1017	0.038345423
133	0xbd79c3e7	-0.060977843
134	0x3a933280	0.001123026
135	0xbd296378	-0.041354626
136	0xbd38ce9c	-0.045118913
137	0xbd50cfd2	-0.050979443
138	0xbd5b62a7	-0.05356088
139	0x3d42a0d5	0.047516663
140	0x3cdaea20	0.026722968
141	0x3cfdf0bc	0.03099858
142	0xbcaf1f20	-0.021377146
143	0x3d0cc9db	0.034372192
144	0xbd4aadf8	-0.049482316
145	0xbc974dac	-0.018469654
146	0xbd42a0f4	-0.047516778
147	0x3d4131e8	0.047166735
148	0xbc0a10d1	-0.008426861
149	0x3d650110	0.055909216
150	0xbd5fcae5	-0.054636855
151	0x3b95a946	0.004567298
152	0xbd2523ef	-0.040317472
153	0xbd5ebd4f	-0.054379757
154	0x3c7e7f5f	0.015533297
155	0xbcdd5fa7	-0.02702315
156	0xbcf332f0	-0.029687375
157	0x3d03e338	0.032199115
158	0xbd7aeef8	-0.061263055
159	0xb9e66c68	-0.00043949788
160	0xbd782ab8	-0.060587615
161	0x38766800	5.8747828e-05
162	0xbd0da46e	-0.03458064
163	0x3d25d6d4	0.04048808
164	0xbd864238	-0.06555599
165	0xbd16f292	-0.036852427
166	0x3d201224	0.0390798
167	0x3d605d0f	0.054776248
168	0x3c543709	0.0129525745
169	0xbd1ce942	-0.03830839
170	0xbc06c3c0	-0.008225381
171	0x3cfa2547	0.030535353
172	0x3d5c78cc	0.05382614
173	0x3d72fdd8	0.059324116
174	0xbd4af417	-0.04954919
175	0xba8d12d5	-0.0010763059
176	0x3cade3c4	0.021226771
177	0xbcf8d908	-0.030376926
178	0xbca6cfa4	-0.020362683
179	0x3d2c4d30	0.0420658
180	0xbd322ee4	-0.04350175
181	0x3d3558f0	0.04427427
182	0xbcdc5ff3	-0.02690122
183	0xbce14ebc	-0.027503364
184	0xbd797770	-0.06090492
185	0xbd534e91	-0.0515886
186	0xbd767050	-0.060165703
187	0x3d556d22	0.05210603
188	0x3c9abc9d	0.018888766
189	0x3cfbc7e8	0.030734971
190	0xbd5cc15c	-0.05389534
191	0xbb3d2b60	-0.0028864965
192	0x3cbb9905	0.022900114
193	0xbd7427da	-0.059608318
194	0xbd6ef607	-0.0583401
195	0xbd1d29ca	-0.03836993
196	0x3d40748d	0.04698615
197	0x3d0977e4	0.033561602
198	0xbc74d030	-0.014942214
199	0xbc3f0138	-0.011658005
200	0x3c9b8289	0.018983142
201	0xbc892d88	-0.016745344
202	0xbcd95504	-0.026529796
203	0xbd44fbf0	-0.04809183
204	0xbc55efd1	-0.013057665
205	0xbcd50100	-0.026001453
206	0xbb8d71f0	-0.004316561
207	0xbd3b79dc	-0.04577051
208	0x3d1e32d6	0.0386227
209	0x3bf612ab	0.0075095496
210	0x3c96a504	0.018389232
211	0xbd8596b8	-0.06522888
212	0xbc8b9228	-0.017037466
213	0xbd59a134	-0.05313225
214	0xbd4742db	-0.048647743
215	0x3c90c6f1	0.017672988
216	0xbd7e23ea	-0.06204597
217	0xbd0f2080	-0.034943104
218	0xbc8aeb88	-0.016958013
219	0xbc05cb6b	-0.008166174
220	0x3d5efa5a	0.054437973
221	0xbd05a08e	-0.03262382
222	0xbc463790	-0.012098208
223	0xbc93385f	-0.017971216
224	0x3d159569	0.03651944
225	0x3cb97c0d	0.02264216
226	0x3d51bc7c	0.051205143
227	0x3d39bb14	0.045344427
228	0xbd38abaf	-0.045085605
229	0xbc846449	-0.016161101
230	0xbcff68b0	-0.031177849
231	0xbd362682	-0.044470318
232	0x3c936308	0.017991558
233	0xbc819830	-0.015819639
234	0x3d111f67	0.03543034
235	0x3d1d0124	0.038331166
236	0x3c542219	0.012947583
237	0xbd333369	-0.0437502
238	0x3d1dc891	0.038521353
239	0x3ca79c39	0.020460235
240	0x3c9e2175	0.019303063
241	0xbd26c1f1	-0.0407123
242	0xbcf56d3c	-0.029959314
243	0xbd817220	-0.06320596
244	0xbd12394b	-0.03569917
245	0x3d066ed2	0.03282053
246	0xbbda1689	-0.0066555184
247	0x3d33cd7b	0.043897133
248	0x3d4c521a	0.049882986
249	0xbcddf777	-0.02709554
250	0x3b3e6db6	0.0029057092
251	0xbd118e28	-0.03553596
252	0xbc6d3f10	-0.014480367
253	0xbd0ac271	-0.03387684
254	0xbc2cfa71	-0.010557757
255	0xbcb98f1b	-0.022651246

2.bias f4 [128]
0	0xbd261a33	-0.04055233
1	0x3d669b39	0.056300376
2	0x3d22a73c	0.03971027
3	0x3d983f14	0.07433906
4	0x3d6c71cc	0.057725713
5	0xbc78c3d7	-0.015183411
6	0xbd93abb0	-0.07210481
7	0x3d7b72ec	0.061388895
8	0x3cc6fcf5	0.024290541
9	0x3caec4c6	0.021334063
10	0x3d10ee5f	0.03538358
11	0xbb0b30c9	-0.0021238795
12	0x3c9ea760	0.01936692
13	0xbd1156e3	-0.035483252
14	0xbcdeaa72	-0.027180884
15	0x3d5987d4	0.05310805
16	0x3d057c64	0.03258933
17	0x3cc06068	0.02348347
18	0xbd293366	-0.041308783
19	0xbcb907d4	-0.02258674
20	0x3d23613b	0.039887648
21	0x3b55e1fb	0.0032635916
22	0x3c62d9fe	0.013845919
23	0x3d109afa	0.035304047
24	0xbd53148e	-0.051533274
25	0x3d024481	0.03180361
26	0xbcff4ea9	-0.031165438
27	0xbd4f6afe	-0.050639145
28	0xbd4400fe	-0.04785251
29	0xbd806948	-0.06270081
30	0x3d373fb8	0.0447385
31	0x3d68b15d	0.05680977
32	0x3cf7022c	0.030152403
33	0x3afdc280	0.0019360334
34	0x3d506228	0.05087486
35	0xbd41865c	-0.047247276
36	0x3d65ced4	0.05610545
37	0x3d653eea	0.055968203
38	0xbd6bf594	-0.05760725
39	0x3c9cb3dc	0.019128732
40	0x3d6b77f0	0.05748743
41	0x3b9c2075	0.0047646114
42	0x3d139a2c	0.0360357
43	0x3c872a38	0.016499624
44	0xbcd9993d	-0.026562328
45	0xbd161d00	-0.03664875
46	0x3d181dd6	0.03713783
47	0x3d52c03c	0.05145286
48	0x3c0028c8	0.007822223
49	0x3d0637e2	0.032768138
50	0xbcab8364	-0.020936675
51	0x3cde1072	0.027107451
52	0xbd5c407c	-0.053772435
53	0xbd1c8489	-0.038212333
54	0x3da0e44d	0.07856045
55	0x3d237d51	0.039914433
56	0x3d1a7f7c	0.037719235
57	0x3cd0e213	0.025498426
58	0xbb5c4975	-0.003361312
59	0x3b56f5c3	0.0032800294
60	0x3d0fdeb6	0.035124503
61	0xbd75c1d0	-0.059999287
62	0xbcd419f4	-0.025891282
63	0x3cf95d8c	0.030440114
64	0xbd88f246	-0.06686835
65	0x3d42cc34	0.047558025
66	0x3d4bacf0	0.049725473
67	0xbb3011e0	-0.0026866123
68	0x3d6f7fc0	0.05847144
69	0x3d63fdf2	0.055662103
70	0xbc27a89b	-0.01023307
71	0xbb5caf21	-0.003367372
72	0xbd1612fa	-0.03663919
73	0xbd128765	-0.035773654
74	0x3d32c75a	0.043647148
75	0xbd28d9d2	-0.041223355
76	0xbd2ded74	-0.04246278
77	0x3d65b320	0.05607903
78	0x3bf8cb80	0.0075926185
79	0x3c9a8608	0.01886274
80	0xbd7cb366	-0.061694525
81	0x3ca9a768	0.020709708
82	0x3d52fb4a	0.05150918
83	0xbcb20231	-0.02172956
84	0xbc31ac68	-0.0108443275
85	0x3cad9d89	0.021193283
86	0x3d89ec7f	0.06734561
87	0xba3d9579	-0.0007232051
88	0x3cc3a974	0.023884512
89	0x3b281120	0.0025644973
90	0x3d87c202	0.06628801
91	0xbc8dfc48	-0.017332211
92	0xbd09c0bb	-0.033631068
93	0x3d4bd874	0.049766973
94	0xbceb954d	-0.028757716
95	0x3d06b9d6	0.03289207
96	0x3d9eac66	0.07747726
97	0xbb44bc5e	-0.0030019502
98	0xbd5a3eba	-0.053282477
99	0x3d4ebedb	0.050474983
100	0x3d9c75cd	0.07639656
101	0x3d5606ac	0.052252457
102	0xbc226880	-0.00991261
103	0xbc0c54bc	-0.008565124
104	0x3d2a1d61	0.041531924
105	0x3cb2a5c8	0.021807566
106	0x3cef044f	0.02917686
107	0x3b8fc030	0.004386924
108	0xbcbb1f94	-0.022842206
109	0xbc4fef4c	-0.01269133
110	0xbbb71e30	-0.0055883154
111	0xbc9aee0c	-0.018912338
112	0x3d430350	0.04761058
113	0x3d24c049	0.04022244
114	0x3d42ec3c	0.047588572
115	0x3d761c44	0.06008555
116	0x3c210090	0.009826794
117	0x3c8424c4	0.016130812
118	0x3d0677aa	0.032828964
119	0x3d49c46e	0.049259596
120	0x3c8a98d4	0.016918577
121	0xbb453900	-0.003009379
122	0x3d01a04c	0.03164701
123	0xbc816a74	-0.015797831
124	0xbc526a60	-0.012842745
125	0xbc59be10	-0.013289943
126	0x3d533dc0	0.05157256
127	0x3d4eb7c6	0.05046823

4.weight f4 [64, 128]
0	0xbd01eda1	-0.03172076
1	0xbda12d43	-0.07869961
2	0x3d6d63db	0.057956558
3	0xbce5ea01	-0.028065683
4	0x3c6d216c	0.0144733
5	0xbc527c68	-0.012847044
6	0xbdaf36d1	-0.08555377
7	0xbce7154e	-0.028208401
8	0xbd61d113	-0.05513103
9	0x3d559e00	0.052152634
10	0x3da1eafc	0.07906148
11	0xbdbecedb	-0.09316798
12	0xbc832ad8	-0.01601164
13	0x3c2d48c0	0.010576427
14	0xbdb31b4f	-0.08745443
15	0xbd2004cc	-0.039067075
16	0x3d3b95be	0.045797102
17	0xbd713c63	-0.05889548
18	0x3da6628f	0.08124267
19	0xbd9ab189	-0.075533934
20	0xbd0be182	-0.034150608
21	0x3c92c22b	0.017914852
22	0xbd801fed	-0.06256089
23	0xbd842a48	-0.06453377
24	0x3ce93670	0.02846834
25	0x3d997c3a	0.074943975
26	0xbd81ff9a	-0.0634758
27	0xbd8b06cd	-0.067884065
28	0xbd915d50	-0.07097876
29	0x3da864b4	0.082223326
30	0x3d8e4754	0.069471985
31	0x3da04fb0	0.07827699
32	0xbc247c40	-0.010039389
33	0xbd28d17b	-0.0412154
34	0x3d8a0e4b	0.067410074
35	0x3db25fa5	0.08709649
36	0x3da68c9d	0.081322886
37	0xbd0b2c53	-0.033977818
38	0xbc908ea0	-0.017646134
39	0x3d89a530	0.0672096
40	0x3d156d72	0.03648133
41	0x3cbe376b	0.023219785
42	0xbd13e20b	-0.036104243
43	0x3d40726a	0.046984114
44	0xbdc0e5dc	-0.09418842
45	0xbc55fdb8	-0.01306098
46	0xbb6026c0	-0.0034202784
47	0xbcf13ce5	-0.029447982
48	0x3d0c7cb0	0.0342986
49	0x3d05cec2	0.032667883
50	0xbd0b62f0	-0.0340299
51	0x3c4edd07	0.012625939
52	0x3d84b7d4	0.06480375
53	0xbdad9f41	-0.08477641
54	0xbd852b18	-0.0650236
55	0xbd929a31	-0.07158316
56	0xbd4928eb	-0.049111288
57	0x3d6bbea3	0.057554852
58	0x3c5c0127	0.013428009
59	0xbd28fdf4	-0.041257814
60	0xbd619d4c	-0.05508165
61	0x3cbdb0c8	0.023155585
62	0xbc543528	-0.012952127
63	0x3c6a89f8	0.014315121
64	0xbce228e9	-0.027607398
65	0xbd02be74	-0.03191991
66	0x3d1e2b50	0.038615525
67	0x3d3f9e4e	0.04678183
68	0x3c4e89e8	0.012606122
69	0xbd9f1fa2	-0.07769705
70	0xbd6869cc	-0.05674152
71	0x3caf0fe7	0.021369888
72	0x3d43db3c	0.0478165
73	0x3d768d48	0.06019333
74	0x3cadaa30	0.021199316
75	0xbd7671c2	-0.06016708
76	0x3db2fd67	0.08739739
77	0xbd170a5b	-0.03687511
78	0x3db0c23f	0.086307995
79	0x3da18825	0.07887296
80	0x3d407682	0.046988018
81	0x3d68a876	0.056801282
82	0x3ca4ca78	0.020116076
83	0x3d7a24a0	0.061070085
84	0x3bb70f70	0.005586557
85	0x3d6bb6c3	0.057547342
86	0x3d456820	0.048195004
87	0xbb8e9d47	-0.004352245
88	0x3d1795b2	0.037007995
89	0x3ca59f00	0.020217419
90	0xbd89dd77	-0.06731694
91	0xbb69cf80	-0.0035676658
92	0xbd411d2f	-0.047146972
93	0xbd13d578	-0.03609225
94	0x3c639ce6	0.013892388
95	0x3da5d348	0.08096939
96	0xbd8a4929	-0.067522354
97	0xbcd8379d	-0.026393706
98	0xbcb8b825	-0.022548744
99	0xbd93833f	-0.072027676
100	0x3d9b9b72	0.07598008
101	0xbd8144e2	-0.063119665
102	0x3cb97294	0.022637643
103	0xbbc58337	-0.006027605
104	0x3d50f0a6	0.05101075
105	0x3c1f80b8	0.009735279
106	0xbda6d8e6	-0.08146839
107	0xbc0e84d0	-0.008698657
108	0xbd471abb	-0.048609477
109	0x3d96f61c	0.073711604
110	0xbd89e86f	-0.06733786
111	0xbca95be4	-0.0206737
112	0x3c4406c8	0.011964507
113	0x3d268ee0	0.0406636
114	0x3da695af	0.08134019
115	0x3d9841d5	0.074344315
116	0x3d886f2b	0.066618286
117	0xbd1bc3df	-0.038028594
118	0xbb3befe7	-0.0028676928
119	0xbd03503f	-0.03205895
120	0x3db4c5d3	0.088267945
121	0x3c944acc	0.018102072
122	0xbcc32f74	-0.023826338
123	0x3ca17747	0.019710196
124	0xbd60a789	-0.054847274
125	0xbd30e2c7	-0.04318502
126	0xbdb67555	-0.08909098
127	0xbb910730	-0.0044259056
128	0xbd9c5632	-0.07633628
129	0x3d05eb36	0.032695018
130	0xbd7a5bfc	-0.06112288
131	0x3d04a35c	0.032382354
132	0xbd02c557	-0.03192648
133	0x3da40bc1	0.080100544
134	0x3d6ec286	0.05829098
135	0xbc548b08	-0.012972601
136	0xbaa068ef	-0.0012238304
137	0x3da5a262	0.08087613
138	0x3cd6ec31	0.026235672
139	0x3dc2dbd2	0.09514584
140	0x3d283bda	0.041072704
141	0xbd48276d	-0.048865724
142	0x3d89b47a	0.06723876
143	0x3dbb9609	0.09159476
144	0xbd9bcd18	-0.07607478
145	0x3d45da9c	0.048304185
146	0xbd7ca8e6	-0.06168451
147	0xbd10927a	-0.03529594
148	0x3dcd4d28	0.10024482
149	0x3d17d40d	0.03706746
150	0xbccbef1c	-0.02489429
151	0x3cbd0cb0	0.023077339
152	0xbdadda28	-0.08488876
153	0xbd511316	-0.051043592
154	0xbd10cfc0	-0.035354376
155	0xbcf100ba	-0.029419292
156	0x3d703126	0.05864062
157	0x3a9f4997	0.0012152669
158	0x3c73c1e8	0.014877774
159	0x3dcc6fa8	0.09982234
160	0x3d0a0a62	0.033701308
161	0x3d29cad2	0.04145319
162	0xbd01ac47	-0.031658437
163	0x3d66acca	0.05631713
164	0xbca836c4	-0.020533927
165	0xbc714be0	-0.014727563
166	0xbd64129a	-0.055681802
167	0x3afb9557	0.0019194287
168	0xbd5ea213	-0.054353785
169	0xbd0cc25c	-0.034365043
170	0xbd29435f	-0.041324016
171	0xbd497738	-0.04918596
172	0xbbf45304	-0.0074561853
173	0xbd53daa6	-0.05172219
174	0x3c76c718	0.015062116
175	0xbc850fb3	-0.016242838
176	0x3d2d5120	0.042313695
177	0xbda88f3e	-0.08230446
178	0xbd7b9c34	-0.061428264
179	0x3c152497	0.009102962
180	0xbd1afe97	-0.037840452
181	0x3b2ab2b3	0.0026046454
182	0xbd5f561b	-0.054525476
183	0x3c8cafae	0.017173614
184	0x3c0f4100	0.008743525
185	0x3db74745	0.089491405
186	0xbd696aac	-0.056986496
187	0x3dcc6781	0.09980679
188	0x3b981f30	0.0046423897
189	0xbd7485d8	-0.059697956
190	0x3d844827	0.064590745
191	0x3d97f831	0.07420386
192	0xbd82c897	-0.06385916
193	0x3b00b794	0.001964067
194	0x3d5e1c56	0.054226242
195	0xbcdd6bd2	-0.027028952
196	0xbdaea9d0	-0.08528483
197	0x3c143920	0.009046823
198	0x3d962cae	0.07332741
199	0x3b31d03c	0.0027132174
200	0x3db7f273	0.089817904
201	0xbd90033c	-0.07031867
202	0xbd8cab08	-0.06868559
203	0xbcc6100c	-0.024177574
204	0x3cf5f33c	0.03002321
205	0x3dae40c3	0.08508446
206	0x3cb3e390	0.021959096
207	0xbd3b1eb4	-0.045683578
208	0xbd19008e	-0.037354045
209	0xbdae172b	-0.08500513
210	0xbb0ce4a0	-0.0021498576
211	0x3dc5a1d2	0.096500054
212	0xbbba7320	-0.0056899935
213	0xbb9c0e41	-0.0047624414
214	0xbb5df165	-0.0033865806
215	0xbd05b569	-0.03264371
216	0xbbb638d0	-0.005560972
217	0xbd70ea68	-0.058817297
218	0x3ddd5ac6	0.10808329
219	0xbd2bf2ca	-0.04197959
220	0xbda31e5b	-0.07964774
221	0xbc8f8484	-0.017519243
222	0x3d92703a	0.07150312
223	0x3d782d27	0.060589936
224	0x3d86d3d8	0.06583375
225	0x3da80e09	0.08205802
226	0xbd76a7be	-0.060218565
227	0x3da1ec92	0.0790645
228	0xbcc7060a	-0.024294872
229	0x3d055fde	0.03256213
230	0x3cd9eb58	0.026601478
231	0x3d8a9ab2	0.06767787
232	0x3d4e3ee2	0.05035294
233	0xbd9db7b2	-0.07701053
234	0x3dd4cc22	0.10390498
235	0x3daccfe9	0.08438093
236	0xbc2f9068	-0.0107155815
237	0x3c9b805f	0.01898211
238	0xbd16318d	-0.03666835
239	0x3d7b7bce	0.061397366
240	0x3cfa6520	0.030565798
241	0x3db6f256	0.08932941
242	0xbcc39c64	-0.023878284
243	0xbd5bf4de	-0.05370032
244	0x3d9399a3	0.07207038
245	0x3d43fccb	0.047848504
246	0x3d87daf2	0.066335574
247	0xbd36fa09	-0.044672046
248	0xbdb21511	-0.08695424
249	0x3d242a26	0.04007926
250	0xbd6cb86c	-0.057793066
251	0xbd83ed8f	-0.06441795
252	0xbd803eaa	-0.06261952
253	0x3cf897f5	0.030345896
254	0x3de5c553	0.11219277
255	0x3d2c1632	0.042013355

4.bias f4 [64]
0	0x3c326c38	0.010890059
1	0x3da27f4c	0.07934436
2	0xbd1d63b0	-0.038425148
3	0x3d56bc09	0.052425418
4	0x3ca1090f	0.01965764
5	0x3da43e59	0.08019704
6	0xbd84c291	-0.06482423
7	0xbd4449df	-0.04792201
8	0x3c4a2929	0.012338915
9	0xbc4538af	-0.01203744
10	0x3d91ee9a	0.07125588
11	0x3d598d5a	0.05311332
12	0x3dc7f9e0	0.09764457
13	0xbd29f080	-0.041489124
14	0xbd783d96	-0.060605608
15	0x3da29ae4	0.07939699
16	0xbcef7cf3	-0.029234385
17	0xbd610eeb	-0.054945868
18	0x3d0da90c	0.034585044
19	0xbd739806	-0.059471153
20	0xbd843a97	-0.064564876
21	0x3d35322c	0.0442373
22	0x3cbb3263	0.022851175
23	0xbd9cdc66	-0.07659225
24	0xbd854147	-0.06506591
25	0xbcd5c8bf	-0.0260967
26	0x3d5ebdce	0.05438023
27	0x3c809f1e	0.015700873
28	0x3d8cdb1b	0.068777286
29	0xbca93882	-0.020656828
30	0x3d73bcbe	0.05950617
31	0x3c42f758	0.011899792
32	0x3d19b283	0.037523758
33	0xbd8e6c12	-0.069542065
34	0xbbd414b0	-0.0064721927
35	0x3b66ca01	0.0035215619
36	0x3ca4a5dc	0.02009862
37	0x3d8eb1bf	0.06967496
38	0xbc860630	-0.016360372
39	0xbcf88040	-0.030334592
40	0xbc8cfd30	-0.017210573
41	0x3d22706e	0.039658003
42	0x3d3fbb26	0.046809338
43	0x3ba16280	0.004925072
44	0xbd22123d	-0.039568175
45	0x3b594da5	0.0033157852
46	0xbd72a428	-0.059238583
47	0x3c5ea958	0.013590179
48	0xbd43b4e1	-0.04777992
49	0x3d020382	0.031741627
50	0x3db74160	0.08948016
51	0x3d663d5c	0.05621086
52	0xbda6879b	-0.081313334
53	0x3c7ce810	0.015436187
54	0x3cf7fe1f	0.030272542
55	0x3d3b8ae1	0.045786742
56	0xbc60c188	-0.013718016
57	0xbd01abc5	-0.031657953
58	0xbcd23f10	-0.025664836
59	0x3c7a417b	0.015274401
60	0x3b239a80	0.0024963915
61	0xbc1d281a	-0.0095920805
62	0x3cdbfd24	0.026854105
63	0x3ca63066	0.02028675

6.weight f4 [1, 64]
0	0xbc879183	-0.016548878
1	0x3db0ea8d	0.08638487
2	0xbd2383d9	-0.03992066
3	0xbcda9659	-0.02668302
4	0xbdef7621	-0.11692453
5	0xbd5ebd4b	-0.054379743
6	0x3ca0e8d2	0.019642267
7	0x3bb996a3	0.0056637092
8	0x3d771be5	0.060329337
9	0xbd0d8e1a	-0.034559347
10	0xbd837819	-0.06419391
11	0x3dc264bc	0.0949187
12	0x3cdedda5	0.027205298
13	0xbd15fbd6	-0.036617123
14	0xbc9f48f8	-0.019443974
15	0x3de648dc	0.112443656
16	0xbd0dcb08	-0.034617454
17	0xbdb1de35	-0.08684961
18	0x3de958ef	0.11393916
19	0xbd032f0a	-0.03202728
20	0xbdbce2ba	-0.09222932
21	0x3e0ec4f5	0.1394232
22	0xbd180a26	-0.037119053
23	0xbdcb6d49	-0.09932954
24	0xbd430580	-0.047612667
25	0xbd86b0eb	-0.06576713
26	0x3c5ca1f0	0.013466343
27	0x3cb3d5d4	0.021952547
28	0xbc0db1a0	-0.008648306
29	0x3e1634cc	0.14668578
30	0xbbe728a0	-0.0070544034
31	0xbc5734f0	-0.01313518
32	0xbd1a2939	-0.03763697
33	0xbd813a96	-0.063100025
34	0x3cd61e60	0.02613753
35	0x3d96597d	0.07341287
36	0x3cc66b88	0.024221197
37	0x3d6027c0	0.05472541
38	0x3cc15801	0.023601534
39	0x3df081b8	0.11743492
40	0xbdc71a54	-0.097218186
41	0xbd1e5278	-0.038652867
42	0xbd61b60c	-0.055105254
43	0x3dfb1b5c	0.12261078
44	0x3d82db82	0.06389524
45	0x3d3d8ef6	0.046278916
46	0x3df5a8ce	0.119950876
47	0x3d967783	0.07347014
48	0xbd15388e	-0.036430888
49	0x3d035a38	0.03206846
50	0x3daf8f6b	0.08572277
51	0xbda4b1ef	-0.08041751
52	0x3db7237e	0.089423165
53	0xbd0e8a08	-0.034799606
54	0x3d0e07c3	0.03467537
55	0xbc30f6d5	-0.010801037
56	0x3dcad9be	0.09904812
57	0xbd1d57b0	-0.038413703
58	0xbdc4449c	-0.09583399
59	0xbd352994	-0.044229105
60	0xbdab235e	-0.08356355
61	0x3d972f14	0.07382026
62	0xb9f3549d	-0.00046411614
63	0x3e0f17f7	0.13973986
