models/MLP-SG-4.pt (torch, 189647 bytes, 7 tensors)

0.weight f4 [256, 21]
000000 2f e0 4c 3e 00 21 ab 3c 6c 1c 0a be 03 92 34 3e
       0.20007394 0.020889759 -0.13487405 0.17633824
000010 26 bd d7 3d 36 c0 b0 3d 72 8c ef 3d 90 c1 86 bc
       0.10534124 0.08630411 0.1169671 -0.01644972
000020 f0 ea 01 3c 0b 7d 5b be 2e 6c e5 3d 40 16 ec bb
       0.007929549 -0.21434419 0.11202274 -0.007204801
000030 d0 9f 8d 3c f4 6b d0 bd 50 9b 3b be 00 4b 73 ba
       0.017288119 -0.101768404 -0.18320966 -0.000928089
000040 cb 1b 08 be 5a 78 85 3d fc 28 28 bd 78 49 da 3c
       -0.13291852 0.06517096 -0.04105471 0.02664636
000050 36 4f 83 bd ec 88 6c bd a2 87 57 3e 80 c9 36 3e
       -0.06411593 -0.057747766 0.21047834 0.17850304
000060 8c 3d ef 3d ae 21 ee bd 01 c3 32 be ee 63 02 3e
       0.11681661 -0.11627518 -0.174572 0.12733433
000070 57 c8 b9 bc 56 d8 dc 3d 5d 12 e5 bd f3 f9 28 3e
       -0.022678537 0.1078345 -0.11185143 0.16501598
000080 d8 db 93 3d 3f 95 1d 3e 06 19 50 be 3d 92 a1 3d
       0.07219666 0.15388964 -0.20322046 0.07889221
000090 af 04 f2 3c a8 12 2b 3e 5e 24 ec 3d bc 06 29 be
       0.029543249 0.16706336 0.11530374 -0.16506475
0000a0 10 ee 23 be b4 de 8f 3d 4c ff 59 3d 91 0d 26 3d
       -0.16008782 0.07024899 0.053221986 0.04054028
0000b0 e8 21 f9 bd 78 cb 30 3e 76 8e 33 3e 1a 15 3e 3d
       -0.1216467 0.17265117 0.17534813 0.046406843
0000c0 d5 fb 03 be 99 8a 0a 3e 0f 81 f2 bc a7 d2 50 be
       -0.12889035 0.13529433 -0.029602556 -0.20392857
0000d0 c0 fb 1c 3e 3d a5 d6 bd 33 3c 93 bd 5f 8c 28 be
       0.1533041 -0.104807355 -0.071892165 -0.16459797
0000e0 03 36 fb bd 22 e8 e1 bd 89 a6 08 3a d4 d5 35 3e
       -0.12266161 -0.11030604 0.0005212804 0.1775735
0000f0 87 27 ea 3c fc 8d 2a be 25 da 34 3d 20 7b b4 bc
       0.028583301 -0.16655725 0.04415335 -0.022031367
000100 7b c0 26 3e 90 84 71 3c bb 79 59 3e e0 96 97 bc
       0.16284363 0.014741078 0.21237843 -0.01850456
000110 af 03 ef bd 92 33 9a 3d f3 ba 54 be e2 5f bf bd
       -0.116706245 0.075293675 -0.2077444 -0.0934446
000120 c7 0d 27 be ec 80 b4 bd 74 dc 0d 3d 54 1c 3d bd
       -0.1631385 -0.088136524 0.03463407 -0.046169594
000130 9b 72 58 3e 2b 8d 57 3e 3a 3c cb 3d c7 50 35 3e
       0.21137469 0.21049945 0.09923597 0.17706595
000140 d5 73 4c 3e 32 09 57 be a7 a0 d0 bd 54 ff 77 bd
       0.19966061 -0.20999601 -0.10186892 -0.060546234
000150 30 f6 da bc 3b 27 1b 3e 65 f8 54 3e bf 29 08 3e
       -0.02672872 0.15151684 0.2079788 0.13297175
000160 cd 80 17 3e 2a 99 b3 3d c1 c6 0d 3e 82 e3 87 3d
       0.14795227 0.08769448 0.1384535 0.066351905
000170 47 8b 2b 3e 15 46 48 be 29 ea 28 3e 5c 3d 67 bd
       0.16752349 -0.19557984 0.16495575 -0.056455
000180 48 95 3a bd ad 8a 55 3e d6 27 e5 3d d3 ed dc bd
       -0.045552522 0.20853682 0.11189239 -0.10787549
000190 b7 42 36 be 3b 1c 16 3e a4 04 33 3d e4 78 38 bd
       -0.17798887 0.14659207 0.043705598 -0.045037165
0001a0 9b b2 4a be e2 25 02 3e 3a 9c c4 bd 02 d3 43 3d
       -0.19794695 0.12709764 -0.0960011 0.047808655
0001b0 60 fc f2 bd 97 e0 54 be eb 57 3b be 96 5d 2a be
       -0.11864543 -0.20788799 -0.18295257 -0.16637263
0001c0 85 2a a0 3d 70 91 51 3e 8e 2a ae bc 9a 1a c5 bd
       0.0782061 0.20465636 -0.021260526 -0.096242145
0001d0 62 27 b3 3d d6 54 de bc ac 5e 08 3e 74 04 2e be
       0.08747746 -0.027140062 0.13317364 -0.16993886
0001e0 a1 fe 7c bb 15 5d 05 be cb 05 2d 3e 83 7c 97 3d
       -0.003860392 -0.13023789 0.16896741 0.073967956
0001f0 37 9e c3 3b 08 c8 33 3e c4 12 a3 3c 1a e2 4e bd
       0.0059697884 0.17556775 0.01990641 -0.050508596
000200 01 3e c3 bd a9 53 32 be 12 41 fc 3d 97 c5 fb bd
       -0.09533311 -0.17414726 0.12317099 -0.12293547
000210 9e 01 11 be 7d e5 56 3e 9b 77 07 be a6 7b b9 3d
       -0.14160773 0.2098598 -0.1322922 0.09056787
000220 dc 9a 66 3e 99 50 31 3e 74 bb 46 bd a9 48 7a 3c
       0.22520012 0.17315902 -0.048518613 0.015276113
000230 4b 82 49 3e 43 91 b3 3c 57 e8 0b 3e 2d 93 54 be
       0.19678609 0.021919852 0.1366285 -0.20759268
000240 cd 16 54 3e 25 b7 35 3d dd 39 8a 3d 10 e1 10 3c
       0.20711823 0.044364113 0.06749318 0.008842722
000250 d4 55 35 be 30 f1 2b 3c 9d 73 18 3e 27 84 17 3e
       -0.17708522 0.010494515 0.14887853 0.14796506
000260 ac d6 1e bd 1c 23 a0 bd b8 69 19 bd bf ec 28 be
       -0.038778946 -0.078191966 -0.037454337 -0.16496561
000270 73 b4 4c be c1 56 4f be 10 c3 f7 3c 94 a4 34 be
       -0.19990711 -0.20247938 0.03024438 -0.17640907
000280 49 0e 49 3e c4 4a 29 3d 40 f0 62 bc bc a4 52 3d
       0.19634356 0.041331068 -0.013851225 0.051426634
000290 66 e6 fe 3d 0e b1 f0 3d e0 12 6c 3c cc f7 58 be
       0.12446289 0.117525205 0.014408797 -0.21188277
0002a0 06 90 69 bd c8 7f 1f 3e 44 86 06 be a2 df c3 3d
       -0.057022117 0.15576088 -0.13137156 0.09564139
0002b0 bd 4a 3a be 6c ac b0 3d a9 77 bb 3c 1e 55 37 be
       -0.18192573 0.08626637 0.022884207 -0.17903563
0002c0 6e fe bd 3d 68 72 bc 3d 1c 9d f1 bd 38 eb 24 be
       0.09277044 0.09201509 -0.11797544 -0.16105354
0002d0 de 68 45 3e af bb c0 3d d4 79 92 bc 0a 78 3f 3e
       0.19278285 0.09410798 -0.017880358 0.18698135
0002e0 a6 ee 3a 3e e4 c7 19 be f0 f0 f5 bd d1 92 e2 3d
       0.182551 -0.15017658 -0.12008846 0.11063159
0002f0 70 49 b6 3d 82 29 b0 3c d4 ba 36 bd fd 54 5f bd
       0.08900726 0.021504167 -0.044611767 -0.05452441
000300 50 f7 34 3e d8 aa 13 3e 23 ec 07 3d 2c d5 e0 3d
       0.17672467 0.1442064 0.033184182 0.10978159
000310 ab 53 f4 bb ab 63 14 be 08 8e 0a bb 10 1e 2e be
       -0.007456263 -0.14491145 -0.0021141786 -0.17003655
000320 19 ed 4c 3d ee 48 ec bd ef ca 84 bd e0 9c f1 bd
       0.0500308 -0.11537348 -0.06484019 -0.117975
000330 5d bf 42 3e 15 f8 96 bd 4e 95 d1 bc 83 83 cd bc
       0.19018312 -0.07371537 -0.02558389 -0.025087124
000340 4d ab 1b 3e 7a 02 64 3e 44 e2 0d bd 03 55 20 be
       0.15202065 0.2226657 -0.03463961 -0.1565743
000350 48 fd 3a be c0 5c 36 bb dd 53 5a be b9 19 55 be
       -0.18260682 -0.002782628 -0.21321054 -0.20810594
000360 ba 39 25 be 74 5d 1c be 98 8d ca 3c 9b 79 4e be
       -0.16135302 -0.15270025 0.02472572 -0.20163576
000370 86 f3 b1 3d 6c 92 25 3d c4 15 5c be 99 3b 45 be
       0.086890265 0.040422842 -0.21492678 -0.19261016
000380 85 70 0a 3e 4b 4f 1e 3e d0 48 b4 bc 10 12 0f be
       0.13519485 0.15459935 -0.022007376 -0.13971734
000390 90 54 6b bd d8 61 51 bd e0 28 27 be f8 a4 38 3e
       -0.057453692 -0.0511187 -0.16324186 0.1803168
0003a0 4a 9d 0f 3e 2d 4d 1e be 57 64 d9 bd eb 13 6c 3d
       0.14024845 -0.15459128 -0.106148414 0.057636183
0003b0 8a 9e c4 3d 13 28 fb 3c f4 59 4c be 42 44 c9 bd
       0.096005514 0.030658757 -0.1995619 -0.09827472
0003c0 14 c7 b0 3b 99 dd 33 3c 99 5f fd 3d 0c 03 6b 3d
       0.0053948257 0.010978126 0.123717494 0.057375953
0003d0 8c dd a5 bb b7 67 db bd 04 30 05 bd 31 4c 26 3d
       -0.005061811 -0.107131414 -0.032516494 0.040600006
0003e0 9b 05 14 3e eb 98 07 3d f4 04 2a be e9 76 1b 3e
       0.14455263 0.03310482 -0.16603452 0.1518208
0003f0 19 18 cf 3d b0 72 59 bd 20 17 4a be 7c 22 0c 3e
       0.10112018 -0.05308789 -0.19735384 0.1368503

0.bias f4 [256]
000000 1c d2 15 bd b9 50 a1 3d 2f 0c 7a 3d 6e 97 40 be
       -0.03657733 0.07876725 0.061046775 -0.18807766
000010 94 8d 61 3d df 25 09 be 0b 55 52 3e 48 8a 0c be
       0.05506666 -0.13393353 0.20540254 -0.13724625
000020 22 06 e7 bd f5 ae 44 be bb 97 1a 3e b1 64 13 be
       -0.112804666 -0.19207366 0.15096943 -0.1439388
000030 f4 fc ed bd 02 87 4d be 1a 9e 7e bd ae 33 3f be
       -0.116205126 -0.20071033 -0.062162496 -0.18672058
000040 02 a4 07 be 5a f4 d4 3d 30 08 bd bd 44 fa 1b 3d
       -0.13246158 0.10398169 -0.09230077 0.03808047
000050 e9 ec 46 3e b9 55 3b be a6 4c 32 be 11 fa 4d be
       0.19426312 -0.1829442 -0.17412052 -0.20114924
000060 f4 25 6d 3d 6b b7 af 3d 37 1f 20 3e 52 75 9c bd
       0.057897523 0.08579906 0.15636908 -0.076395646
000070 bb 9b 5d 3d a2 46 37 be 09 6c 1d 3e 06 d1 19 be
       0.054103594 -0.17898038 0.15373243 -0.15021142
000080 35 f1 82 bd 70 aa 19 3c a8 96 b1 bc 0e 4a 1a be
       -0.06393663 0.009379014 -0.021678284 -0.15067312
000090 fa 8f 28 be fb 0e 2f 3e 7e fa 02 3e 4c af 4c bd
       -0.16461173 0.17095558 0.12790868 -0.049971864
0000a0 bc 7c 50 bd 18 f7 86 bc 94 6e 24 3d 4c 88 25 be
       -0.050900206 -0.016475245 0.040144518 -0.16165274
0000b0 32 fc 8c bd fe bb 76 3d fb 97 e3 bd 68 37 01 3d
       -0.0688404 0.060237877 -0.11112972 0.03154698
0000c0 ca 39 81 3d e0 d7 27 bc 5a 30 90 bd 08 9b d0 bd
       0.063098505 -0.01024434 -0.07040472 -0.1018582
0000d0 c8 3d 3f be b1 4a 03 3e cb bc 4d 3e 0e 52 5d 3e
       -0.18675911 0.12821461 0.2009155 0.21613333
0000e0 34 1c 93 3c be 1f 0b be 6f 2f 47 3e bf de 30 be
       0.017957784 -0.13586327 0.19451688 -0.17272471
0000f0 dd ce fd bd f0 6f 0e 3e ac 6c 21 3c 2c ea ab bd
       -0.12392972 0.13909888 0.00985257 -0.08394274
000100 ad 8a 6a bd c4 30 ce bd ee 9e a4 bd 86 f8 96 bd
       -0.057261158 -0.10067895 -0.08038126 -0.07371621
000110 d0 43 7b 3d 02 f8 18 3c a8 30 35 3d 2f e3 8e bd
       0.061343968 0.009336473 0.044235855 -0.069769256
000120 2b 62 41 3e 2c 34 ad bd f8 b7 14 be 71 a4 4a 3e
       0.18885104 -0.084572166 -0.14523304 0.19789292
000130 b7 09 14 3e 39 92 fb bd 53 f9 05 3e 04 d3 ff 3b
       0.14456831 -0.12283749 0.13083391 0.0078071374
000140 c3 7f fe bc 0e 39 b1 bd 7c ff 07 be a4 2b 21 3e
       -0.03106678 -0.086534604 -0.13281053 0.15739304
000150 68 ca e4 bc 1a eb f4 3d f6 54 06 bd cb 6b 1f 3e
       -0.027928546 0.119589046 -0.03279587 0.15568464
000160 68 f8 c2 bd af b0 44 3e 68 c9 85 bc cf 4f 01 3e
       -0.09520036 0.19208024 -0.01633139 0.12628101
000170 3f 42 3c be d9 3f 41 be 59 b0 28 3e d8 1f a7 3c
       -0.18384646 -0.18872012 0.16473521 0.020400926
000180 ec 6e 4b 3c 3b 2f 3e be 2f fd 90 3d 71 87 12 3d
       0.012416583 -0.18572704 0.07079541 0.0357737
000190 00 52 6a 3e 17 49 85 3c af 55 db bc 9f 6a 1a 3e
       0.22882843 0.016270204 -0.026774256 0.15079735
0001a0 28 bb a4 bd 20 33 1d be ea 7c 52 be 0b 39 2d bc
       -0.0804351 -0.15351534 -0.20555463 -0.010572682
0001b0 e6 5f ef 3d e9 5f ff 3d 91 22 cc bd 40 9b 43 bb
       0.11688213 0.12469465 -0.099675305 -0.0029847175
0001c0 a7 b3 2c 3e 70 d7 aa 3c ae 5a 80 3d 34 68 2d be
       0.16865407 0.020854682 0.06267296 -0.16934282
0001d0 47 94 8d bd 6e 96 1d 3e 3a f5 a0 bd 3d b3 b7 bc
       -0.06913047 0.15389416 -0.07859273 -0.022424335
0001e0 2d 9e 5d be fe dc a8 3d b2 d8 46 be 24 c8 60 3d
       -0.2164237 0.08245276 -0.194186 0.05487837
0001f0 14 48 01 be 72 5b 33 be 83 09 77 bd 86 b9 89 bd
       -0.12625152 -0.17515352 -0.060311805 -0.06724839
000200 77 c1 1a 3e f0 a7 86 3c 88 3c 7e bd 99 f6 96 3d
       0.15112863 0.0164375 -0.062069446 0.073712535
000210 6b 31 0c 3e a3 6f 43 3e b1 38 6c bd 21 b0 b8 bd
       0.13690726 0.19085555 -0.057671253 -0.09017969
000220 34 60 d2 bd 68 69 c6 3c d2 2d 7f 3c 34 8b 44 3d
       -0.102722555 0.024220183 0.015574889 0.047984317
000230 4c 01 3f bd 0c 2e d7 3d 7c 0c 7a 3d 23 d4 2f 3e
       -0.046632096 0.105068296 0.061047062 0.17170767
000240 f8 37 38 bd ce a5 9d 3c 96 1f f4 bd 6d dc 20 3e
       -0.04497525 0.0192441 -0.11920087 0.15709086
000250 d2 e9 18 3e 18 0c 2c 3e 55 f9 52 be d1 f4 03 3e
       0.14932945 0.16801488 -0.20602925 0.12886359
000260 b8 e2 ab bc e4 bd 49 3d 96 ca b6 3d 5a df 1f 3d
       -0.020982131 0.04925336 0.08925359 0.039031364
000270 38 95 41 3e 98 4d 91 bc cc b5 7b 3d 00 e5 1f bc
       0.18904579 -0.017737195 0.061452672 -0.009759188
000280 c0 48 5e be f4 8a 08 3e 25 78 1a 3e 72 07 2e be
       -0.2170744 0.13334256 0.15084894 -0.16995028
000290 10 b1 55 bc 72 32 ca 3d b9 d9 4d 3d f2 4d fa 3d
       -0.013042703 0.09872903 0.050256465 0.12221898
0002a0 c7 61 b4 bd 8f 7d 2a 3e ec db 24 be 2e 24 ea 3d
       -0.08807712 0.1664946 -0.16099519 0.11432682
0002b0 85 de 73 bd 08 7c 1b be 5e 49 5e be 11 6e 1c be
       -0.059538383 -0.15184033 -0.21707675 -0.15276362
0002c0 a8 6e 10 bd 57 52 87 3d 28 35 81 bd f0 7b b0 bc
       -0.03526178 0.06607502 -0.06308967 -0.021543473
0002d0 71 b1 cb bd c0 91 29 3c 18 47 c8 bd 40 6a 39 3e
       -0.09945954 0.010349691 -0.09779185 0.18106937
0002e0 ea eb 99 3d a8 f0 b5 bd 31 27 42 3e 5f 2f 52 3e
       0.075157 -0.08883792 0.18960263 0.20525883
0002f0 0a 81 0b be e7 13 24 3e 00 1a 3f 3e 53 ff 4b 3e
       -0.13623443 0.16023217 0.18662262 0.19921617
000300 d6 2d bd 3d 4a 81 52 be b8 db 5b 3d 69 63 57 3e
       0.09237258 -0.20557132 0.053676337 0.21034016
000310 11 ca 17 3e 91 39 1e be ae b1 bd bd 6b 75 54 3e
       0.14823176 -0.15451647 -0.09262405 0.20747916
000320 4f 70 11 3e a4 be 4a bd fb 0b 37 3e 7e 0c fb bd
       0.14202999 -0.049498215 0.17875664 -0.12258242
000330 45 85 3c 3e 1d e2 4f 3e 7e 1b a6 3d f8 a7 16 bd
       0.18410213 0.20301099 0.081107125 -0.03678128
000340 0a 40 e3 3d 0c 7b bd bd 0e ee a3 3d ad 69 c1 3d
       0.11096199 -0.09251985 0.0800439 0.09443984
000350 3c 05 27 3e 36 47 a0 3d a1 1c b6 bd 56 bc 44 be
       0.1631059 0.078260824 -0.08892179 -0.1921247
000360 4e df 90 bd cf 4c 4e be 0d 33 7e bd a8 fd 39 be
       -0.07073842 -0.20146488 -0.062060405 -0.18163168
000370 15 d1 01 3e 3f c4 3c be 96 eb 09 be 66 1b 83 bd
       0.12677415 -0.18434237 -0.13468775 -0.0640171
000380 a9 f1 3a be 6c 12 0c 3d 30 8f e6 bd be f9 74 3d
       -0.18256249 0.034197256 -0.112577796 0.059808485
000390 71 67 13 3e 22 1b 0b be 31 dc 09 3e dc b7 9d 3d
       0.14394929 -0.13584569 0.13462903 0.07701084
0003a0 bd f7 50 be 04 9f 7b 3d 6c 28 ad bd 0a a4 d5 3d
       -0.20407005 0.061430946 -0.084549755 0.104316786
0003b0 09 aa 39 3e 5c 2f 4a bd 80 a0 9c bb 62 13 1b be
       0.1813127 -0.04936157 -0.0047798753 -0.15144113
0003c0 a4 32 2e 3d 75 eb f6 bd 28 2c 0e 3e 13 b0 ab bc
       0.042528763 -0.120566286 0.13884032 -0.020957982
0003d0 08 8c 35 be 67 91 cc bd 5d 70 51 3e 48 da db bc
       -0.17729199 -0.09988671 0.2045302 -0.026837483
0003e0 e0 ce 2e bd 8e 78 c0 3d 1a 7a 89 bd 62 fb e1 3d
       -0.04267776 0.09397994 -0.06712742 0.110342756
0003f0 8c 7a fa bd 6a 96 f3 3d aa 6f 55 3c 55 11 27 3e
       -0.12230405 0.118939236 0.013027111 0.16315205

2.weight f4 [128, 256]
000000 38 05 0e bc 28 67 1c 3d e8 79 af bc 60 1f 43 3d
       -0.008668236 0.038184315 -0.021420434 0.047637343
000010 a0 e3 3a bb a4 f1 ed bc 68 10 68 3c 12 14 75 3d
       -0.0028517023 -0.029045887 0.014164068 0.059833594
000020 b8 74 e8 bc dc 0a 37 3d 2c 74 5b 3d ac 62 05 3d
       -0.028375968 0.04468809 0.053577587 0.032564804
000030 26 9c 18 bd 0e d6 0a bd 70 c0 f8 3c 00 7b cd b9
       -0.03725829 -0.033895545 0.030365199 -0.0003919229
000040 50 b6 b4 bc 70 ca ac 3b e8 2e 33 3d d8 58 53 bc
       -0.02205959 0.005273156 0.043745905 -0.0128996
000050 54 8e f0 bc 72 13 0f 3d fa 09 3a 3d a0 21 99 bc
       -0.029364742 0.034930654 0.04541967 -0.018692791
000060 dc 5b 75 bd 2c 4f 93 bc be d4 07 3d 0c f6 32 3d
       -0.059902057 -0.017982088 0.03316187 0.04369168
000070 3c 75 ca bc 74 7d 2f bd 94 bc c1 bc e0 e4 ce 3b
       -0.024714105 -0.04284425 -0.023649491 0.006313905
000080 58 b8 2a bd 70 e0 5f bc f8 33 13 3d c4 bc af 3c
       -0.04167971 -0.01366435 0.035938233 0.021452315
000090 f0 c5 47 bc cc 0d 03 3d 60 3b 0f 3b 46 2d 34 bd
       -0.012193188 0.03199558 0.0021855459 -0.04398849
0000a0 2a c0 67 bd 80 da 7d 3a 04 92 cb bc 50 73 0d bd
       -0.056579746 0.0009683743 -0.0248499 -0.0345338
0000b0 20 c8 bc 3b 84 52 84 bc 82 f9 1b bd 3e bc 50 3d
       0.0057611614 -0.016152628 -0.038079746 0.05096077
0000c0 54 38 ac 3c 04 d4 c3 3c b8 31 78 3c a0 73 60 3c
       0.021022953 0.023904808 0.015148573 0.013699442
0000d0 84 26 53 bd a8 c7 23 bd 76 81 50 bd fa 70 48 3d
       -0.051550403 -0.03998533 -0.050904714 0.048935868
0000e0 12 6f 44 bd c8 a1 ac 3c 14 01 ae bc a0 91 11 3c
       -0.047957487 0.021073237 -0.021240748 0.008884817
0000f0 d8 c8 eb 3c 74 6c 81 3c 50 eb 0e 3c 64 21 29 3d
       0.028782293 0.015798785 0.008723095 0.04129161
000100 d8 46 c1 bc 3c 57 6b 3d 00 27 f7 3c 4c 09 d0 3c
       -0.023593351 0.05745624 0.030169964 0.025395058
000110 7c d0 a9 bc 90 12 71 3c a0 c8 11 3b 76 84 3a bd
       -0.020729296 0.014713898 0.0022244826 -0.04553648
000120 00 c3 f9 39 e4 89 df bc 42 ed 7f bd 2a 62 0d bd
       0.00047638267 -0.027287431 -0.062482126 -0.034517445
000130 74 7e 07 bd d0 49 30 bc 00 f6 20 ba 46 b2 50 3d
       -0.03307958 -0.010759786 -0.00061401725 0.050951265
000140 58 32 fc bc 20 cb f0 bc 7c 01 94 bc 72 f4 14 bd
       -0.030785725 -0.029393733 -0.018067114 -0.036365934
000150 d8 bd 9b bc f0 ab 66 3d ca 50 21 bd 16 ac 7c 3d
       -0.019011423 0.056316316 -0.039383687 0.06168755
000160 20 5d 5c 3c a0 e3 4b bd 9c 3a 39 bd b4 e4 54 bd
       0.013449937 -0.049777627 -0.04522191 -0.05197592
000170 90 7e 38 3d 68 a3 d2 3c a4 3d fe bc 60 12 bc bc
       0.045042574 0.025712684 -0.031035252 -0.02295798
000180 1c d1 2b 3d f4 dd a2 bc e4 62 73 bd 06 cf 39 3d
       0.04194747 -0.019881226 -0.05942048 0.04536345
000190 c8 02 57 bd fc 70 6b 3d be 67 4b 3d cc fc ac bc
       -0.052492887 0.057480797 0.049659483 -0.021116637
0001a0 8e 00 6c 3d 80 fb 32 bb 28 7e 1a 3d 9a 8f 03 bd
       0.057617716 -0.002731055 0.03771797 -0.03211937
0001b0 ae 3c 51 3d 80 e3 09 bb e6 a0 20 3d c8 08 2d 3c
       0.05108326 -0.0021040142 0.039215945 0.010561176
0001c0 18 ae 65 3d 80 c9 ce bb 40 d3 b4 bb ec 59 1e bd
       0.056074232 -0.0063106418 -0.005518347 -0.038659975
0001d0 e0 9a ba bc 5c 9f 03 3d 40 fc 3a bc 1a ed 1b bd
       -0.022778928 0.0321344 -0.01141268 -0.038067915
0001e0 a0 94 af bb f4 f5 d0 bc 10 6e aa 3b 2e 79 03 3d
       -0.0053582937 -0.025507905 0.0052011088 0.032097988
0001f0 20 d7 37 bd a0 de 3a bd 66 4c 7c bd 24 b0 fe bc
       -0.044882894 -0.045622468 -0.061596297 -0.03108985
000200 80 c4 08 3b 46 a1 48 3d c0 41 06 bb 50 6e 34 bd
       0.0020869076 0.048981927 -0.0020485967 -0.044050515
000210 18 98 69 3d 6e 46 7c 3d 3c b8 c2 3c e0 1a ac 3b
       0.057029814 0.061590604 0.02376949 0.005252227
000220 40 29 79 3c 68 56 0e 3c d8 71 fe bc d8 99 e9 3c
       0.015207589 0.008687593 -0.031060144 0.028515741
000230 48 75 1f 3c d0 bb 9e 3c 00 03 44 3d 60 08 b4 bb
       0.009732552 0.019376665 0.047854424 -0.0054941624
000240 d8 0e 38 3c 64 6f b9 bc ae 2f 48 3d c0 ae 3e 3d
       0.011234008 -0.022636123 0.048873596 0.046553373
000250 50 a7 66 3c 7a 9b 6f bd a0 93 2d 3c bc 03 2b 3d
       0.014077976 -0.058497883 0.010594279 0.04175161
000260 3e d7 75 bd 08 6b 72 3d 10 72 89 3c 00 d0 eb 3c
       -0.060019724 0.059184104 0.016778022 0.028785706
000270 d8 20 73 3c 44 a1 e4 3c 38 e4 bd 3c 88 4b 10 3d
       0.0148393735 0.027908929 0.023180112 0.035228282
000280 36 de 13 3d 98 9a a3 3c c0 ad 6b 3b 7e 40 3e bd
       0.03610059 0.019971177 0.0035961717 -0.046448223
000290 70 df 84 3c e2 3f 1a bd e4 1e c3 3c fc 45 65 3d
       0.016219825 -0.03765858 0.02381844 0.055974945
0002a0 40 4f dd bb 98 c7 02 3d 28 cd 17 3d ec 76 02 bd
       -0.006753832 0.03192863 0.037060887 -0.031851694
0002b0 c0 aa b9 bb 52 64 37 bd 80 b7 63 3d 4c 86 82 3c
       -0.005666107 -0.044773407 0.05559492 0.015933178
0002c0 2c 72 20 3d 90 b3 1c 3c 60 c0 62 bb a8 51 35 bc
       0.039171383 0.009564295 -0.0034599528 -0.011066832
0002d0 18 60 3b 3c 12 0d 71 bd ba e2 01 3d 7e 82 09 bd
       0.011436485 -0.058850355 0.031710364 -0.033571713
0002e0 82 ed 08 3d cc 3c 12 3d 0a fa 13 3d fc 3d 68 3d
       0.03342963 0.03570251 0.036127128 0.056699738
0002f0 42 d8 1e 3d 3e ba 4f 3d 36 20 19 3d 68 23 7d 3d
       0.03878046 0.050714724 0.037384234 0.061801344
000300 d4 51 1f bd 20 04 01 bd 90 ab b3 3c 62 a2 36 bd
       -0.038896397 -0.031498075 0.021932393 -0.044588454
000310 40 53 3b 3b 00 14 86 38 cc 56 e9 bc d8 b2 5b 3c
       0.0028583556 6.393343e-05 -0.02848377 0.013409339
000320 aa 58 41 3d fe af 47 bd 4e 7c 13 bd 90 7f be 3c
       0.047203697 -0.048751824 -0.036007218 0.023254186
000330 ec 05 76 bd 24 5f 5c bd f0 dc f5 3c dc c6 1c 3d
       -0.06006424 -0.05380167 0.030012578 0.038275585
000340 ca 3e 30 3d 60 fd a0 bc 10 99 f1 3c d0 86 99 3c
       0.04302863 -0.019652069 0.029491931 0.018741041
000350 5a 2d 7d bd ec 16 a5 bc ae a6 47 3d 00 9c ab 39
       -0.06181083 -0.020152532 0.048742943 0.0003273189
000360 dc 00 25 3d c0 0b 05 3b 24 ed 66 bd a0 89 ce 3b
       0.040284023 0.0020301193 -0.0563785 0.0063030273
000370 7c 56 07 3d ac 5a 69 bd e8 f2 9e bc f2 ce 05 bd
       0.033041462 -0.056971237 -0.019402936 -0.03266806
000380 bc 1b c2 bc 20 6a 43 bb 42 e2 3c bd f4 bf e8 3c
       -0.023694865 -0.0029817894 -0.046114214 0.028411843
000390 f4 50 c1 3c 3c 68 91 bc b8 7c 61 bd 08 0d 5c 3d
       0.023598172 -0.017749898 -0.05505058 0.053723365
0003a0 e6 1a 07 bd ea 42 5d 3d 38 c4 25 bc b2 75 25 bd
       -0.032984637 0.054018892 -0.010117583 -0.040395446
0003b0 80 ff 42 bd 04 0b 61 bd 3e de 09 3d 58 66 5b 3d
       -0.047606945 -0.054942146 0.033659212 0.0535644
0003c0 a0 ec 40 3c 5c 7a d6 bc e0 65 1c 3b bc ca 90 bc
       0.011775166 -0.026181392 0.0023864433 -0.017674796
0003d0 12 91 72 3d 00 c6 24 bd 88 fe 77 3d da 92 21 bd
       0.05922038 -0.04022789 0.060545474 -0.03944669
0003e0 be f3 08 3d 7a 5a 3f 3d a8 6f 8e bc 34 36 c0 3c
       0.033435576 0.046717145 -0.017387226 0.023463346
0003f0 34 49 dc bc 38 6a 5e bd 80 6e d3 3c cc 3b 37 3d
       -0.026890375 -0.054300517 0.025809526 0.04473476

2.bias f4 [128]
000000 8c 1d df bc 7b 9a 93 3d e0 b3 7f bb 88 cf 2a bd
       -0.027235769 0.07207199 -0.0039017126 -0.041701823
000010 8e 1b 98 3b 32 90 04 3d a9 a7 90 3d c0 cd 22 bc
       0.0046419566 0.032364078 0.07063229 -0.00993675
000020 58 ab 33 bc 00 ee 1b b9 c0 b0 44 3b da 6d 18 3d
       -0.0109661445 -0.00014870614 0.0030012578 0.037214138
000030 4e d6 69 bd d2 dd 32 bc 9d 0c b0 bc d2 64 1e 3d
       -0.057089143 -0.010917144 -0.02149039 0.03867037
000040 58 d8 c6 3c 4f 6e 9b 3d b3 8e 32 bb f0 6a 61 3d
       0.024273083 0.07589399 -0.00272457 0.055033624
000050 16 d1 8b 3c f5 d1 72 3c 92 fc 81 3d fd c1 a9 b9
       0.017067473 0.0148205655 0.06347002 -0.00032378724
000060 ef 50 19 bc 34 82 c2 bc b8 a1 d0 3c 40 fb b7 3b
       -0.009357675 -0.023743726 0.025467739 0.005614668
000070 dc b9 66 bd 1b d3 ff bc 2a 4f 69 bd b2 85 76 3d
       -0.056329593 -0.031228593 -0.056960262 0.060186096
000080 26 99 12 bd 38 00 a5 3c e2 2d 46 bd 40 26 a3 3c
       -0.035790585 0.020141706 -0.0483836 0.0199157
000090 e3 9e 96 3c d0 63 8b 3c 17 7e 46 3d fc ea 57 bd
       0.01838631 0.017015368 0.048460092 -0.052714333
0000a0 cc a6 25 bd fd 08 fe bb 35 8f 1d 3c 12 cd 2f bd
       -0.040442273 -0.0077525363 0.009616663 -0.04292018
0000b0 a0 4b 85 bc a4 32 77 3d 88 78 02 3d 84 2a 53 bd
       -0.016271412 0.06035103 0.03185323 -0.051554218
0000c0 a8 ca 9e 3c f2 c8 d1 3c bc 62 42 3d 30 f2 0a 3d
       0.019383743 0.025608514 0.04745744 0.033922374
0000d0 8a 5c 1f 3c 1f 03 20 bd 50 3b 5f 3c de 14 02 3d
       0.009726653 -0.039065477 0.013624981 0.03175818
0000e0 00 02 9b bc fd 8c 8d bc 6d 2e 2f bd d6 ff 8e 3d
       -0.018921852 -0.017279143 -0.042768884 0.069823906
0000f0 e0 77 74 3c e6 1e 77 bd 4d 7a 30 3d 59 da 85 3d
       0.014921159 -0.0603322 0.043085385 0.06535787
000100 86 c2 7c 3d 5c 10 c8 bc a5 24 78 bd 3b 4a f6 3c
       0.06170895 -0.024421863 -0.060581822 0.030064693
000110 c4 eb 65 3d 88 3f 56 bd 34 2a 27 3d a0 26 4a 3d
       0.056133047 -0.052306682 0.040811732 0.049353242
000120 dc bd 4d bd 71 df 4e 3c 1c 8e 65 bd 9c 1c d8 bc
       -0.050229892 0.012626515 -0.05604373 -0.02638083
000130 ac 7e 41 3d ef c9 8a 3d 7d f0 82 3d e6 d4 51 bd
       0.047239944 0.06776797 0.06393526 -0.051228426
000140 af b9 8c bb 7a 00 6a 3d 04 7b 32 3d 33 22 2e bb
       -0.004294596 0.05712936 0.043574348 -0.0026570677
000150 a6 15 19 bd b0 59 8b 3d 0c 71 53 bd 22 c5 ba bc
       -0.03737416 0.06804216 -0.05162148 -0.022799078
000160 be 5a 4e bd 71 df e1 3c f2 25 e7 bb 59 8b 31 bc
       -0.050379507 0.027572365 -0.007054084 -0.010836446
000170 79 a4 07 bd fe 8e 84 bc f0 c9 13 3c 7d 7f 6d 3c
       -0.033115838 -0.016181465 0.009020314 0.014495728
000180 7a 5e 83 3d 28 9d 79 3d 80 cc 9e 3c 8c 0c 5f bd
       0.06414504 0.06094089 0.019384623 -0.054455325
000190 7e 29 38 3d 2a be 04 bd 7c ba 29 3d a9 7c c6 3c
       0.044961445 -0.032407917 0.04143761 0.024229364
0001a0 95 25 ea 3c c3 2f 6c bd ae 6e 06 bd 8b e8 b7 3b
       0.028582374 -0.057662737 -0.032820396 0.005612438
0001b0 25 77 03 3c cd 57 be 3c 9e 90 65 3d d0 70 2f bd
       0.008024012 0.023235226 0.05604612 -0.042832196
0001c0 92 65 05 3d 88 23 c8 3c ec 2c 59 3c 30 29 0b 3d
       0.032567568 0.024431005 0.013255339 0.033974826
0001d0 f2 74 0e 3d 0b 2f 07 3d 67 26 8d bc d4 0d d6 bc
       0.034779496 0.033003848 -0.017230226 -0.02612964
0001e0 66 6c 85 3d 55 ef 90 3b 4c 80 35 3d 76 fc 6c 3d
       0.06514816 0.004423062 0.044311807 0.057857953
0001f0 03 ac 70 3d 5c 7f 27 3d cd ad 32 3c d8 07 47 bc
       0.058757793 0.040892944 0.010905695 -0.012147866

4.weight f4 [64, 128]
000000 ee 33 17 3d 4d f7 4e bd 7e 07 57 3d fc 37 d0 bc
       0.03691476 -0.050528813 0.05249738 -0.02541732
000010 35 74 37 bd 36 78 52 bd b7 3d 16 bd 20 ca c5 bc
       -0.044788558 -0.051384173 -0.03667995 -0.024144232
000020 24 4e b4 bd 18 24 01 bd a0 b7 a9 bd 4e 51 39 3d
       -0.08803967 -0.031528562 -0.08286977 0.045243554
000030 32 34 6a 3d ad 5c 3b bd b0 09 01 3d d8 eb 0d 3d
       0.057178684 -0.04574268 0.03150338 0.034648746
000040 e2 b3 7e 3d ec 0f b8 3c 48 1a 85 3c 00 2c 12 39
       0.06218327 0.02246853 0.016247883 0.00013940036
000050 00 38 88 b9 3b dd 9f bd 56 fe 52 3d 40 93 61 bc
       -0.00025981665 -0.07805868 0.051512085 -0.013768017
000060 cb 67 b0 3d b9 7b 02 bd 29 d8 85 3d d7 39 a7 bd
       0.08613547 -0.031856272 0.0653537 -0.08165329
000070 7a 8c 22 3d 5c bf 0f 3d ae cf 68 3d 50 e1 b3 bd
       0.03968475 0.035094604 0.056838684 -0.08783209
000080 90 ae 8f bc 2e c9 0f 3d 08 b3 38 3c 89 e2 92 bd
       -0.017539293 0.03510397 0.011273153 -0.071721144
000090 9c 64 54 bd 28 8b c9 3c 74 1b 97 bd 6c 82 83 bd
       -0.05185376 0.024602488 -0.07378283 -0.064213604
0000a0 5a ad 86 bd 1c 85 f9 bc 28 10 51 3c e8 7c 84 3c
       -0.06576033 -0.03045898 0.0127602 0.016172841
0000b0 62 e6 e7 bc 95 06 97 3d a0 77 ec 3c 6b 63 ab 3d
       -0.028308097 0.07374302 0.028865635 0.08368572
0000c0 24 8b 5c bd f8 d2 1f bc 40 74 38 bc 3f 99 63 bd
       -0.053843632 -0.009754889 -0.011258185 -0.05556607
0000d0 ef ab 82 bd 18 1d 78 3c 3e bb 4f 3d b8 30 12 bc
       -0.0638045 0.015143655 0.050715677 -0.008922748
0000e0 c5 c3 9b 3d 74 72 8c 3c ba ee 3e 3d ba ca 32 3d
       0.076056994 0.01714442 0.046614386 0.043650366
0000f0 c2 ec a0 bd 93 15 97 bd dc 8f bb bc 60 8b e6 3c
       -0.07857658 -0.07377162 -0.022895746 0.028142631
000100 9a 2a e7 bc bb f2 a4 bd e6 d5 14 3d b0 d1 02 3c
       -0.028218556 -0.0805411 0.036336802 0.007984564
000110 fa f1 40 3d 00 6b ab 3a c8 d8 8d 3c 51 c5 a2 3d
       0.047105767 0.0013078153 0.017315283 0.07947791
000120 4a df 5a 3d fe 28 4b 3d 88 b3 dc bc f1 6d ac bd
       0.0534356 0.04959964 -0.026941076 -0.08419407
000130 00 6a 3b ba 86 4a fa bc dd 7b 09 bd dd eb 07 bd
       -0.0007149279 -0.030553114 -0.03356539 -0.03318392
000140 a2 b2 5b 3d 38 e9 7e 3c de bb 35 3d 86 26 ae bd
       0.053637154 0.015558533 0.044368617 -0.085034415
000150 3d 15 86 3d 94 5c 63 bd b5 2d a6 3d 9c 9e e5 3c
       0.0654702 -0.05550821 0.08114187 0.028029732
000160 ee 76 32 bd d4 e2 e3 3c b4 8e d3 3c b3 51 68 bd
       -0.04357045 0.027818121 0.025824882 -0.05671854
000170 3c ce 9e bc b0 f2 8b 3c f4 b4 c6 3c b7 fd 2d bd
       -0.01938545 0.017083496 0.024256207 -0.04247829
000180 b2 2e 41 bd ce a8 1e 3d d0 45 f5 bb 8d 6c 8e bd
       -0.047163673 0.038735203 -0.007485129 -0.06954298
000190 2a a9 fe bc d4 0e 91 bd c1 49 a8 3d b8 5d 04 bc
       -0.031086523 -0.07082906 0.082171924 -0.008078985
0001a0 3c 95 b7 3c 0f b5 a0 bd bb fe 8b 3d a1 ec 94 3d
       0.022410028 -0.07847034 0.06835695 0.07271696
0001b0 b8 a4 ee bc d6 92 23 3d aa 2c 3a 3d 00 41 13 3d
       -0.029131278 0.039934956 0.04545275 0.03595066
0001c0 b0 a1 08 bc 0a 6f 9f bd b0 46 a5 3c e9 35 a9 3d
       -0.008339331 -0.07784851 0.020175308 0.08262236
0001d0 7e bc 76 3d 48 ca b4 3c ba a6 6f bd 52 c9 18 3d
       0.060238354 0.022069111 -0.058508612 0.03730137
0001e0 6e fc 0c bd f1 00 63 bd 6a c0 2a bd a0 c4 cc 3c
       -0.034420423 -0.05542082 -0.041687407 0.024996102
0001f0 6e e6 80 bd e8 ba 1b bc ac a2 8d bd 1b 9b 97 3d
       -0.06293951 -0.009505011 -0.06915793 0.07402631
000200 f0 a5 5d bd 63 8c 3a bd 90 ee dc 3b a6 64 6e bd
       -0.05411333 -0.04554404 0.006742306 -0.058201455
000210 70 fa bd 3d 30 93 61 3c 6f c6 9e 3d 6c a6 ee 3c
       0.09276283 0.013768002 0.07752692 0.02913209
000220 11 5f 8e 3d 77 3a 8a 3d e2 c9 45 bd 20 f5 c4 bb
       0.06951726 0.067494325 -0.048288234 -0.0060106665
000230 fe 7e 02 bd 10 03 68 bc 47 42 35 3d 06 1a 59 3d
       -0.03185939 -0.014160886 0.04425266 0.053003334
000240 d9 85 27 3c 6f bf 19 bc df 53 e0 bb 48 1a 13 3c
       0.010224783 -0.00938402 -0.0068459357 0.008978434
000250 ff a7 5a 3c 8d 65 07 3d b6 b7 8b 3d bb 2f 8b 3d
       0.013345717 0.03305583 0.068221495 0.06796213
000260 95 11 8d 3d dc b7 b8 bc 72 aa a3 bd 60 2a 4a bb
       0.06888119 -0.022548608 -0.07991494 -0.0030848011
000270 f8 1c 55 3c 76 50 9a 3d f0 76 72 bc 25 ac 3e bd
       0.013007395 0.07534878 -0.014798865 -0.04655089
000280 17 cf b9 3d c5 2a 84 3d 95 43 53 bd 54 db 90 3d
       0.090727024 0.0645347 -0.051578123 0.070730835
000290 d5 65 98 3d 58 8f 8e bc 4a 3f 9c 3d 2b f3 9a 3d
       0.07441298 -0.017402336 0.07629259 0.07565912
0002a0 ae 02 7b bd e1 80 08 bd 8c 72 01 bd bc c2 52 3d
       -0.061281852 -0.033326034 -0.03160338 0.051455244
0002b0 96 bd 77 bd e3 68 01 bd 29 45 6e 3c c2 8e 26 3d
       -0.060483538 -0.03159417 0.014542856 0.04066349
0002c0 5c f1 1f bd 92 53 d6 3d 6a 21 7d 3d a6 82 ae bd
       -0.039048538 0.104651585 0.061799444 -0.08521013
0002d0 54 ba 0c 3d ff 63 b9 bc 91 4d 51 3d 7c a2 4b bd
       0.034357384 -0.02263069 0.051099364 -0.049715504
0002e0 42 ac 26 bd 67 fc 29 3d 64 98 39 3d 57 e1 90 bd
       -0.04069162 0.041500475 0.045311347 -0.0707423
0002f0 6d f6 a6 3d 4a dd 52 3d 59 f9 5c bc 91 9f c4 3d
       0.08152471 0.05148057 -0.0134871835 0.096007474
000300 cc 29 46 bd ae 0f 2a bd 7b 4b a4 bd f9 9f 20 bd
       -0.048379704 -0.04151886 -0.08022209 -0.03921506
000310 bd 92 80 3d b8 be 22 bc 5f b7 02 3d 88 f7 e3 bc
       0.06277988 -0.009933166 0.031913158 -0.027827993
000320 85 af 00 3d 49 78 ab 3d 61 b3 a1 3d 1a d6 83 bd
       0.03141739 0.08372552 0.07895542 -0.06437321
000330 12 81 01 3d 52 bf 7f 3d dd 13 72 3d 75 55 e4 3c
       0.03161723 0.062438317 0.059100974 0.02787278
000340 e6 c4 22 bd 0e de 3b 3d df f5 3a bd 6a 4f 90 3d
       -0.03973856 0.045866065 -0.045644637 0.07046397
000350 4d ec 88 3d a6 07 ad 3d 80 b9 5e bd 0f d2 8a bd
       0.06685696 0.084487244 -0.054376125 -0.06778347
000360 a9 de 9d 3a 14 35 da 3d 1a b9 71 bc a3 f2 97 bd
       0.0012044507 0.10654655 -0.014753604 -0.07419326
000370 cf a6 23 3d 54 90 c2 3a 3c e7 ae 3c 7b bb c1 3d
       0.039954003 0.0014844039 0.021350496 0.09459587
000380 35 c4 85 3d 40 a7 30 3c 00 01 84 39 f0 4b 41 bd
       0.06531564 0.010782063 0.00025177747 -0.04719156
000390 eb 01 82 bd 78 d7 0f bc db 74 98 3d 37 4f d2 3c
       -0.06348022 -0.008779399 0.074441634 0.025672538
0003a0 f2 cd 70 3d 17 03 d5 bb 2c 9e 02 bd 76 47 92 3c
       0.058790155 -0.0065006125 -0.031889126 0.01785634
0003b0 a5 1e a4 bd 81 d6 8e bd 56 f0 9f bd 04 15 d1 bc
       -0.080136575 -0.06974507 -0.07809512 -0.025522716
0003c0 88 16 0a bc f1 c1 84 3d 70 05 f9 bc 77 f0 49 bd
       -0.008428223 0.06482304 -0.0303981 -0.04930159
0003d0 93 50 d8 3d 2e a3 bc bc 63 32 93 3c f8 ff b7 3c
       0.10562243 -0.023027029 0.017968362 0.022460923
0003e0 b1 04 ca 3d ec 07 01 bd f8 f2 fa bc 4c ff 2f bd
       0.09864176 -0.031501696 -0.030633435 -0.04296808
0003f0 db 68 9f bd 6c 4d 86 3b 93 b0 94 bd 34 47 99 bc
       -0.077836715 0.004098585 -0.07260241 -0.01871071

4.bias f4 [64]
000000 de 63 6b 3d 70 ab a4 3d 06 b6 44 3d b8 40 03 3d
       0.057468288 0.080405116 0.048025154 0.032044142
000010 80 63 e6 bb ea 37 e8 3c b6 8a d7 bc 92 f3 89 bd
       -0.0070309043 0.028346974 -0.02631126 -0.067359105
000020 1c b6 c3 bc 32 24 3f 3d e0 0e e7 3b 5d 9d f6 3c
       -0.023890547 0.046665378 0.007051334 0.030104334
000030 ab 2b cc 3c 2b c1 97 3d 3e af f5 3c 63 9b bc 3b
       0.024923166 0.07409891 0.029990789 0.005755828
000040 92 5f 83 3d 5b 86 c7 bb 9a 2e d2 3b 00 a9 d9 3a
       0.06414713 -0.0060890145 0.0064142467 0.0016606152
000050 d3 47 a5 3d f9 15 a5 3c 29 06 0a 3d a7 1e 12 3d
       0.0807034 0.020152079 0.03369728 0.035673764
000060 e3 3a 86 bd b3 53 81 3d b8 09 a4 3c 36 1e 17 3d
       -0.065542005 0.063147925 0.020024166 0.036894046
000070 c8 27 81 3c 11 46 9b bd 4c be 81 3c 36 f9 0f bd
       0.01576604 -0.075817235 0.015837811 -0.035149775
000080 a1 47 af 3d 43 da 4f bd 77 cf 54 3d 24 e7 7c bd
       0.08558584 -0.05074526 0.051955666 -0.06174387
000090 bd 1f f0 bb c6 54 45 3d 09 c1 b3 3b 2c 19 5d 3d
       -0.0073280022 0.04817655 0.005485658 0.053979084
0000a0 a7 bd 8b 3d 60 e6 19 bb 33 41 8f bd 5c b7 b0 3c
       0.06823283 -0.0023483261 -0.06994858 0.021571808
0000b0 48 f5 5d bc 51 21 4a bd 6d 4f 9d bd 52 9f 99 3d
       -0.013547249 -0.04934818 -0.07681165 0.07501091
0000c0 74 0c 37 bd d2 0a 8d bc 38 0c a8 3d 91 8b 9c 3d
       -0.04468961 -0.017217074 0.082054555 0.07643808
0000d0 8f 27 9a 3d 8a 93 fd bc c8 fe 7f 3d 78 8f a7 3c
       0.075270765 -0.030954141 0.062498838 0.020454153
0000e0 bd 57 8d 3a 60 f6 81 bd 72 32 51 3d 36 3e 37 3d
       0.0010783594 -0.063458204 0.0510735 0.044737063
0000f0 c8 90 e3 bc 00 f1 09 3c c3 83 29 bd fb 78 81 bd
       -0.027778998 0.008419275 -0.041385423 -0.06321903

6.weight f4 [1, 64]
000000 56 62 d2 bd 16 87 df 3d 8c 8d d5 3d 8e ac 8a 3d
       -0.10272662 0.109144375 0.104273885 0.067711934
000010 76 24 f7 bd 3e c3 d0 bd ea a7 10 3d b5 7a b2 bd
       -0.12067501 -0.101934895 0.035316385 -0.08714811
000020 b0 46 e4 3d 10 1b 47 bc b5 52 ca bd 94 8e 9b bd
       0.11146295 -0.012152448 -0.09879056 -0.07595554
000030 0c aa 60 bc d8 bb 37 3d f4 97 d5 bd 07 c4 01 3e
       -0.013712417 0.044856876 -0.104293734 0.12672435
000040 c5 f8 c7 bd 3c 0c d6 3d af e5 92 bd 3c 94 60 3d
       -0.09764246 0.10451552 -0.07172715 0.054828867
000050 28 c4 74 bd 8d 59 d8 3d 03 39 97 3d 16 30 85 bc
       -0.05975738 0.105639555 0.07383921 -0.01625828
000060 b8 01 65 bd b8 a3 bb 3d c0 35 e7 bb 1a 0c a0 3d
       -0.055909842 0.09162086 -0.007055968 0.07814808
000070 ba c3 9b 3d 78 90 b9 bc f7 b1 e3 3d b0 8e e6 3d
       0.07605691 -0.022651896 0.111179285 0.11257684
000080 ee c0 13 3d 34 e4 10 3d a5 b1 c5 bd 40 98 62 3d
       0.036072664 0.03537388 -0.09653024 0.05532098
000090 eb b3 de 3d a3 c9 2f 3d 40 ff a5 bd 68 bf c9 bd
       0.108741604 0.042916905 -0.08105326 -0.09850961
0000a0 88 9f 02 3e fe a3 d6 bd 5f 12 88 3d 30 87 16 3c
       0.12756169 -0.10480498 0.06644129 0.009187505
0000b0 48 fb e8 bc 88 1b d1 bd c0 35 9a 3b 67 ee 0d 3d
       -0.028440133 -0.10210329 0.0047061145 0.034651186
0000c0 2c 9b 8c bb 0d 0e 89 bd 35 b4 37 bd a0 60 43 bc
       -0.004290959 -0.06692133 -0.044849593 -0.011924893
0000d0 90 cc 21 3c a4 c4 d7 3d be 5f b8 bd 7c b5 c0 bd
       0.009875432 0.10535553 -0.090026364 -0.094096154
0000e0 29 8d 17 3e 88 ff 0d 3e f8 4e dc 3d 3e 26 ad 3d
       0.14799942 0.13867009 0.107572496 0.0845456
0000f0 12 b5 f5 bd 8a b9 b1 bd 76 ce 80 bd 39 bd 02 bc
       -0.11997427 -0.08677967 -0.06289379 -0.0079796845
