models/MLP-D-4.pt (torch, 187599 bytes, 7 tensors)

0.weight f4 [256, 19]
00000000: 921b a7bc 09d2 33be 7410 4d3e e1cc 47be
00000010: 7c3b d43c 7e31 e53d cd42 2b3e 7056 4b3e
00000020: a83f 08be 9cd6 033e b39a c5bd b3ba 2abe
00000030: a3e1 22be 7758 e63d a688 12be b5a3 bf3d
00000040: 9a48 d73c 57f3 aabd 9cdb 333e 410e 4fbe
00000050: e017 3dbe c627 023d c3a1 d9bd 0d7d e33b
00000060: d08a 31bd f68d 86bd 2860 10be d97e 43be
00000070: ee6f f13c 2e29 5f3c a051 c43d 431e 01be
00000080: 8024 22be aafb 57bd 775f 763d 7830 dbbd
00000090: c81b 5abe c986 ec3d 0d9c 2f3e b06b 8d3c
000000a0: 80c5 8eba be94 e2bd f71b 623e 186a 52bd
000000b0: 7e16 c33d a5c5 223e ebdd 483e 1ee1 e73d
000000c0: 9b96 683e beea df3d d2bc b23d 5a41 9a3d
000000d0: a26f 51be e084 adbb 390c 3b3e c811 f33c
000000e0: 5400 04be 0030 e1bc 28a0 12be f8f2 88bc
000000f0: e424 603d f0ab 72bd d6d7 9d3d e8ff 04bd
00000100: b2de 2cbe 4030 5bbe 924f b63d c61c 62be
00000110: 30df 923c de16 863d c556 f7bd 946a 6f3d
00000120: 2818 49be d570 5b3e f1be 273e 789c 02be
00000130: b8fe 05be dfb1 603e b3db 313e 7a00 bd3d
00000140: 70e7 32be 2a6e fb3d a0e2 883b 3611 38be
00000150: 277a 10be 7854 bb3c 760d b03d 91b0 4e3e
00000160: 3469 023d f1d6 433e 4fed 3b3e 8752 653e
00000170: 35cb 543e a6be c6bd 563a 52be f06a 333d
00000180: f516 433e 2123 c1bc a1a0 a5bd 08e8 903d
00000190: 649e 493d e624 573e ae98 41be aaca 013d
000001a0: 9f1a a93d 589f 863d d0ca 62be 21e3 f2bd
000001b0: e063 4e3e dafb 5c3e c74a 02be 21a9 4dbe
000001c0: 5d8f 093e 0252 1d3e 8990 0abd 8085 7f3d
000001d0: 0366 60bd 53d7 36be f4aa 0bbe c857 25bd
000001e0: 43c9 a63b dd89 2bbd 49e2 293d c99a 43be
000001f0: f69c 343e 8ec1 4ebe 1daa 12be b122 53be
00000200: 7529 303e 634e 79bd d28b c3bd 4d1e 503e
00000210: 8e80 183d 75a4 5dbe e676 3fbe 0d7b 9b3d
00000220: 2941 ad3d efb7 b6bd 6d8c 253e b9bd 593c
00000230: f90d 57be ca1a 9dbd 1aed efbd b3de 6abe
00000240: d85b 90bd 6270 48be 7946 fa3d df51 9f3d
00000250: ff55 0b3d 27c2 de3d ab30 1a3e 6439 e23d
00000260: 6468 35bd ca21 ae3d a5ca 023e 4e64 2abe
00000270: d9eb 673e 07d0 0c3e cca5 323d e8b9 ec3c
00000280: 5c6b 7cbd d4f0 6a3d b89c babc aa3b c73d
00000290: 5ac3 89bd d149 373e 6eba 32be 1776 efbd
000002a0: 9e17 9cbd 10cb 31bc 003c 16be 3e1c e43d
000002b0: 7a56 533e 5ceb 023b 6241 49bd dcb4 17be
000002c0: 9bc1 c83d 0e63 2fbe fca5 b5bd 488c babd
000002d0: c973 643e a241 083e b80f 8f3d 1813 2a3a
000002e0: a7a0 50be c374 4dbe 8a53 8cbd a6f9 d2bc
000002f0: ec57 74bd cd6b 0b3e 01e1 0c3e 244c 45bc
00000300: ea75 113e ec0c 77be 5eab 81be 5f21 9c3d
00000310: bf32 85be 707d c7bd 298f 6a3d 0e44 86be
00000320: 5071 2b3d 2a49 76be 05d6 9d3d 4ee1 123d
00000330: 608b 743d 718c 02bd d697 82be b445 4f3d
00000340: 9763 75bd f825 43be dc25 5fbd 684e 23be
00000350: 166e 8b3d 1907 dbbd 8a28 87bd 5035 16bd
00000360: e876 55bd a3bb 10be 5dff 443e 083f 3ebe
00000370: 4089 3f3c 177b 32be 14a0 713d ee1b 803d
00000380: 4a73 34be 6873 17be 5aaf 913d 2859 89bd
00000390: 5209 5ebe 399b 43be 63aa c13d 4665 163e
000003a0: 3b6d f73d a9a2 57be 3f0b 263e 87a3 3fbe
000003b0: be82 bebd 37c2 643e c9cf 3abe 11fb bb3d
000003c0: 46a4 103d 7de0 b4bd 81a3 4e3d 0d14 59bd
000003d0: c93e 05bd 2701 1a3e 8abf 193c f31a 8a3b
000003e0: 86b7 583e 4950 3a3e cebf 6b3e fd1f e13d
000003f0: dd2e bc3d 7cd2 04be 282f 26bc bb13 8fbd
-0.020398889 -0.17560591 0.20025808 -0.19511749 0.02590727 0.111910805 0.16724701 0.19857192
-0.13305533 0.12874836 -0.09648647 -0.16672783 -0.15906386 0.11247342 -0.1430994 0.093573965
0.026279736 -0.08347195 0.17564243 -0.20220281 -0.18466139 0.031776212 -0.10626557 0.0069423974
-0.043345273 -0.06570046 -0.1409918 -0.19091357 0.029472318 0.013620658 0.09585881 -0.126092
-0.15834236 -0.05273024 0.060149636 -0.10702604 -0.2129966 0.11549146 0.17149372 0.017263263
-0.00108926 -0.110635266 0.2208098 -0.05137071 0.095257744 0.15895708 0.19615905 0.113222346
0.22713701 0.109334454 0.08727421 0.07531996 -0.20452741 -0.005295381 0.18266381 0.029671565
-0.1289075 -0.027488708 -0.14318907 -0.016717419 0.05472268 -0.059246004 0.07707183 -0.032470614
-0.16881827 -0.21405125 0.089018956 -0.22081289 0.01792869 0.0654733 -0.12077097 0.05845125
-0.19638121 0.21429761 0.16381432 -0.12755 -0.13085449 0.21942852 0.17368965 0.092286065
-0.17471099 0.122768715 0.0041774064 -0.17975315 -0.14109097 0.022867426 0.085963175 0.20184542
0.03183861 0.19124962 0.18352245 0.22394763 0.20780642 -0.09704332 -0.20530066 0.043803155
0.19051726 -0.023576321 -0.08087278 0.070755064 0.04922332 0.2101017 -0.18905899 0.031687416
0.08257031 0.06573361 -0.2214768 -0.11859728 0.20155287 0.21580449 -0.12723838 -0.20084049
0.13433595 0.15363315 -0.033829246 0.062383175 -0.054784786 -0.17855577 -0.13639432 -0.040366918
0.0050899102 -0.041879524 0.041475568 -0.19102015 0.17638001 -0.20191023 -0.14322706 -0.20618702
0.17203315 -0.06086577 -0.09548153 0.20324059 0.037231974 -0.21644767 -0.186977 0.075918294
0.08459694 -0.08921801 0.1616685 0.013289862 -0.21001424 -0.07671125 -0.117151454 -0.22936516
-0.07048768 -0.1957412 0.12220473 0.077792875 0.03401756 0.10876875 0.15057628 0.11046103
-0.044289008 0.085025385 0.12772615 -0.16639826 0.22648562 0.13751231 0.043615147 0.02889724
-0.061625823 0.057358578 -0.022779807 0.09728177 -0.067267135 0.17899252 -0.1745393 -0.11692446
-0.07621692 -0.0108516365 -0.14671326 0.11138199 0.20638457 0.001997671 -0.04913462 -0.14815086
0.09802552 -0.1712763 -0.0886955 -0.09108788 0.22309794 0.13306287 0.0698542 0.00064878305
-0.20373784 -0.20064072 -0.06851871 -0.025753807 -0.05965416 0.13615341 0.13757707 -0.012042079
0.14205137 -0.24126023 -0.25326055 0.076235525 -0.2601528 -0.09740722 0.057265434 -0.26223797
0.04185611 -0.24051347 0.077068366 0.0358594 0.05970323 -0.031872217 -0.25506467 0.050603583
-0.05990943 -0.19057453 -0.054479465 -0.15947878 0.068081066 -0.10694713 -0.06599529 -0.036671937
-0.05211535 -0.14134078 0.19238038 -0.18578732 0.011690438 -0.17429768 0.058990553 0.06255327
-0.17622104 -0.14790118 0.07113524 -0.06706458 -0.21683243 -0.19102181 0.09456327 0.1468707
0.12081381 -0.21058144 0.16215228 -0.18714724 -0.09302281 0.22339712 -0.18243326 0.091787465
0.035312913 -0.0883188 0.0504489 -0.052997638 -0.03253058 0.15039502 0.009384045 0.0042146384
0.21163759 0.18194689 0.23022386 0.109924294 0.09188626 -0.12970918 -0.010143079 -0.06986185

0.bias f4 [256]
00000000: 847d 44be 73c5 e6bd 2c9f 08bd c483 693d
00000010: ea37 9c3d ee3b 123e 260c 2f3e 639e d2bd
00000020: 9986 5b3e 88f7 6b3d 118f 50be 40ab b03b
00000030: d5f3 4b3e bb6d 25be 333e 043e f299 13bd
00000040: 07cb f8bd 082b ad3c f680 fc3d ed5b 2d3e
00000050: 20c3 3ebc aedf 8f3d 2c64 833d e246 36be
00000060: a2b6 d83d 25b4 cfbb a5ab 0ebe 834f 123e
00000070: c0fb afbc df5a 0abe 0579 4cbe 2e1d 5e3e
00000080: 496a 053e da12 7cbe 1624 88be 849f cabd
00000090: 3a94 08be 20a5 f6bc 43d6 f5bd 7b80 433e
000000a0: 788e c4bd 167e f23d 8065 603c d4a9 1bbd
000000b0: ef21 46be 26e9 e33d b624 11be cab8 ccbd
000000c0: 503e 19be 4f1e 8c3d e28c 47be e9eb 033d
000000d0: 0cc1 65be 3792 97bd 0843 cc3d 61ec 43be
000000e0: 56e9 eebd 63a3 393d 5521 993d efa8 853d
000000f0: 54e1 23be 3505 39be 11fd 043e 2141 443e
00000100: f401 5ebe 9e00 3fbe 70bb 89bd 2986 4dbe
00000110: 4062 33bb a5c8 1d3d d69b 993d 9099 70bc
00000120: 9852 c0bd 8e1b 18be 5eeb 0fbe 3f36 2dbe
00000130: 33f8 683e f4fa b4bd e4d9 6c3d c023 ccbc
00000140: 8016 9d3a 64bc 4cbc 7d9d 5f3e 243c 84bd
00000150: dabb ea3d efdf a0bd 81d7 583e 4b30 9d3d
00000160: 5232 da3d 4616 e53d 45ff 3bbe cc19 edbd
00000170: 081b f3bc 2074 fc3d ba02 203e a27b 613d
00000180: c507 d4bd 3cbb acbd 20f6 ccbd ebee 12be
00000190: 9d33 2b3e 8eb9 1fbe 48c0 7ebe 0b61 ff3d
000001a0: 5030 993c eb02 543e 5bbe 633e 8381 d53d
000001b0: f607 1ebe 33ca da3d 2311 4a3e 2405 e03d
000001c0: 9c33 5dbe 53bb 2d3e 5bb8 423e a665 65be
000001d0: b586 c2bc ecfd 2f3d 983c b0bc 39a7 223d
000001e0: c04b e8bd 40fe 393e 0a89 27be 13bd 333e
000001f0: b76b f03d 33fe 463e 607c ea3b 4c84 b5bd
00000200: 14a6 3cbd 00c8 c53a 8bdb 713d beef 363e
00000210: e1dd 2cbe ce65 b13d 7644 fb3d a358 05be
00000220: 1c25 453d 83ac 333e 2ee1 f33d 27fb 0cbe
00000230: ffc7 4cbe f023 163e bf5e a4ba 60ae 9bbb
00000240: 9c8d fcbd cd00 5fbe eca9 0ebd d15a 013e
00000250: a9bc 08be a493 67bd 8ced 553d 34df ed3d
00000260: 8051 1a3b 8d63 003e 5c59 8bbe 4a47 df3d
00000270: 9a05 b63d fa2d 93be 3424 7d3d 7783 7bbe
00000280: 16a0 11be c263 323e f410 5bbe 5215 193e
00000290: 1ae3 afbd 58b2 a93c 8957 693e 4f4a 2abe
000002a0: 8228 e63d 4524 153e 0c9b 07bd 2d15 d8bd
000002b0: 8f5c 2f3e 3006 913d 00e6 2dbd 27ac 68be
000002c0: 6a88 51bd c870 3dbe 9052 4cbe 992f 3b3e
000002d0: 61bd 663e 1e65 13be 584b a73d 0f7b edbd
000002e0: 2046 5dbd f809 05bd b020 10be 6da5 123d
000002f0: 413d 4fbe c4ca 0f3e 0024 0dbb 1f68 32be
00000300: 7c27 73bd 1403 29bc ef1b 003e 7382 733d
00000310: f9a2 223e e807 413d bb09 91bd e61f da3d
00000320: 52b2 c83d 7a14 2d3e a85c 793e df76 183e
00000330: 4469 1ebe 00ae 2c3b d898 3fbe 8f93 58be
00000340: 888b d2bd 8057 7e3c 1e81 ce3d 70cd fcbc
00000350: 4ebb 24bd e1d9 333d 3ee1 3f3e 51f3 023e
00000360: 629b edbd a610 b5bd dfe7 0ebe 8d25 503e
00000370: f60e 353e 3e86 45be c8f3 0fbe 0fd0 113e
00000380: 54d1 6e3d 7e34 af3d e156 c53d 2bd5 5a3e
00000390: c3ac 36be bc53 5cbe 5885 51bd c2ae d13d
000003a0: 9af6 a93d e0b4 24be 3901 343e f54a f6bd
000003b0: 3d1f 143e b7d3 1e3e 83eb fdbd 326f 88bd
000003c0: 4844 edbd c0e0 b6bd 0bef 403e 5113 023e
000003d0: eb9e 64bc d724 2a3e f68a 5bbe 52c0 2cbe
000003e0: 1897 383e a7ae 0ebe e06b 0e3c 89fd 323e
000003f0: ce24 aa3d 9fc5 d33d 4a55 38be f876 38be
-0.19188505 -0.11268129 -0.033354923 0.057010427 0.07627852 0.14280674 0.17094478 -0.10284116
0.21438064 0.05760911 -0.20367076 0.0053915083 0.19917233 -0.1615514 0.12914352 -0.036035486
-0.121480994 0.021138683 0.12329285 0.16929598 -0.011643201 0.070250854 0.06415591 -0.17800477
0.105817094 -0.0063386136 -0.13932665 0.14288144 -0.021482348 -0.13511227 -0.1996804 0.21690819
0.13028826 -0.24616566 -0.2659003 -0.098937064 -0.13337794 -0.030108035 -0.12003758 0.1909198
-0.09597486 0.11840455 0.0136960745 -0.038003758 -0.19348882 0.11128454 -0.1417416 -0.09996183
-0.14965177 0.068417184 -0.19487336 0.032207403 -0.22436923 -0.07400935 0.09973723 -0.1913314
-0.11665599 0.045321833 0.07477061 0.06526362 -0.16003925 -0.18068393 0.12987162 0.1916547
-0.21680433 -0.18652579 -0.06725204 -0.2007071 -0.0027371794 0.038521428 0.075004265 -0.01468505
-0.093907535 -0.14854261 -0.14054629 -0.16915224 0.2275093 -0.08836928 0.057824984 -0.02491939
0.0011984855 -0.012496088 0.21837421 -0.064567834 0.11461611 -0.07855212 0.21175958 0.07675227
0.10654129 0.11185889 -0.18359096 -0.11577186 -0.029675975 0.123268366 0.1562604 0.055049546
-0.103530444 -0.084341496 -0.10007882 -0.14348952 0.16718908 -0.15598127 -0.24878037 0.12469681
0.018699795 0.20704238 0.22240584 0.10425093 -0.15432724 0.10683098 0.197331 0.109384805
-0.21601719 0.1696599 0.19015639 -0.22402057 -0.023745874 0.04296677 -0.021513268 0.039710257
-0.11342573 0.18163395 -0.1636087 0.17552595 0.11739295 0.19432907 0.00715594 -0.08863124
-0.046056822 0.0015089512 0.059047263 0.17864892 -0.16881515 0.08661996 0.12268917 -0.13022093
0.048131093 0.17546277 0.11908184 -0.13767682 -0.19998167 0.14662147 -0.0012540444 -0.0047510117
-0.12331697 -0.21777649 -0.03483002 0.126323 -0.13353218 -0.056537285 0.052228495 0.11614838
0.0023547113 0.12537976 -0.27216613 0.10902269 0.08887787 -0.28746015 0.061802104 -0.24561869
-0.14221224 0.17420867 -0.21393186 0.1494954 -0.08588238 0.020714924 0.22787298 -0.16629909
0.11238195 0.14564617 -0.03310685 -0.10550914 0.17125152 0.07081258 -0.042455673 -0.22721921
-0.051155485 -0.18500054 -0.1995337 0.18279876 0.2253318 -0.14394042 0.081686676 -0.11595737
-0.054021955 -0.03248021 -0.1407497 0.035802294 -0.2023821 0.14042193 -0.002153635 -0.17422532
-0.059363827 -0.010315675 0.12510656 0.059450578 0.15882482 0.04712668 -0.07081934 0.106506154
0.09799637 0.16902342 0.24351752 0.14889096 -0.15469843 0.002634883 -0.18710649 -0.21150039
-0.1028052 0.015523791 0.10083221 -0.030859679 -0.04021769 0.043908957 0.18738267 0.1278813
-0.116019025 -0.08841066 -0.1395564 0.20326824 0.17681488 -0.1928949 -0.14057839 0.14239524
0.0583051 0.08554934 0.096357115 0.2137038 -0.17839341 -0.21516317 -0.051152557 0.102384105
0.08298989 -0.16084623 0.17578591 -0.12026016 0.14465041 0.1551045 -0.12398436 -0.06661834
-0.11585289 -0.089295864 0.18841188 0.12702681 -0.013953905 0.16615616 -0.21439728 -0.1687024
0.18026388 -0.13933812 0.008692712 0.17479528 0.08307801 0.103404276 -0.18001285 -0.18014133

2.weight f4 [128, 256]
00000000: 2218 51bd 402f 49bd 182f 4bbc d45d 093d
00000010: 4ea6 41bd d64e 15bd 902e 05bc fc16 a7bc
00000020: a078 47bd 8a2a 483d b864 38bd d86b 193c
00000030: 6873 2abc 8c0f 6b3d a899 eabc b891 42bd
00000040: 2cf2 7a3d 30f1 13bc 802a c23a 904a 7cbc
00000050: 4056 cc3b 085a b23c 5061 d8bc d215 6dbd
00000060: 8c33 b6bc c4fa 66bd 56a6 25bd 4e1c 163d
00000070: 8061 55bc 18af 553c 9825 0bbc 4034 39bd
00000080: faf2 68bd 2c0d 323d c0e4 303d c630 39bd
00000090: 1ef8 493d cebb 463d b015 8ebb 6ce4 883c
000000a0: d815 49bc e0e3 45bc 7476 0dbd dc94 85bc
000000b0: f874 1a3c 085d f1bc 92df 6fbd ac01 f5bc
000000c0: e873 743d ee45 2b3d 786e 3e3c 9a54 13bd
000000d0: 0e7e 583d e2c9 0a3d d8e9 22bd ba79 583d
000000e0: e8e5 a43c 2050 62bc ce6c 0abd eaab 34bd
000000f0: 58d1 b2bc 32cb 74bd e038 c93c 58e1 4f3d
00000100: 84fe b2bc d89b 97bc 9670 41bd a0c4 f8bc
00000110: 42f0 2bbd f473 b4bc ea05 6ebd 1cef b63c
00000120: 9cf6 eb3c 5e21 5bbd c423 d23c 7c72 8dbc
00000130: 2c5d 793d 4608 023d 14be 36bd dacf 183d
00000140: 0099 443b 107d ab3b 0682 3ebd be17 2cbd
00000150: 045e 6a3d 464d 3bbd 3c7a 8a3c b8bf 75bc
00000160: ee0a 45bd 4e84 07bd 84b5 fa3c 2073 f43c
00000170: 1ca7 a13c 4002 493b 0c71 aabc c01d ff3b
00000180: 80e7 d53c 601c 603b f8f1 ec3c a25b 58bd
00000190: a661 6ebd e0df f0bb c8cd 443c 5e0e 6b3d
000001a0: 12af 5d3d 1628 03bd 8008 02bb f860 4dbd
000001b0: a04f fcbb 104a 2fbd d0b7 f7bb b0dc 753d
000001c0: 40d3 3f3c 22d0 0e3d 4029 31bc e052 62bc
000001d0: 747e 9d3c cc83 78bd 401d 833b 7cce 8e3c
000001e0: d823 563c 7ccb 013d 7446 6ebd 589d 453c
000001f0: 5809 c43c 9811 ea3c 30c2 c5bc 0092 5d3a
00000200: c44a 77bd 82a5 7dbd a821 51bd 24c8 ba3c
00000210: 281e 7bbd 6ea0 613d 4cf5 c0bc f8ff 1ebc
00000220: 262a 43bd 3080 763d e025 0cbb 2073 ba3b
00000230: 2c1e 2fbd 201f 163c a0c8 493d 6a94 253d
00000240: 90bb ebbb 766c 25bd 0ae6 7d3d 9a24 5fbd
00000250: a4d8 b9bc 144f dcbc 94c8 653d 8e54 66bd
00000260: a688 413d a2fc 123d a06d 72bc c60b 0fbd
00000270: 4087 fb3b b04f 00bd e0d2 8c3c 3e24 223d
00000280: 009a 6a3c f078 473d 56ef 59bd 40fc 1e3b
00000290: 42e9 323d 2861 643d 38cf 2e3d 6cdc 183d
000002a0: 64de c23c 32ca 5a3d 08bf 76bc 5c94 abbc
000002b0: 5c68 b8bc 3c94 30bd 908e 213d f66e 5d3d
000002c0: 6cb3 eb3c b079 d5bb 48ae 3d3c 48fb 1dbc
000002d0: e449 053d 42a3 0fbd 00a5 b13b a037 9cbb
000002e0: 04c4 773d 90ce 15bc e4ed d2bc 64c2 02bd
000002f0: 84a5 aebc 8207 19bd 26a5 153d 0e80 263d
00000300: d8af 0e3c a618 6f3d 00b6 1b3a a0f4 fabb
00000310: cc25 7e3d be94 57bd 625b 31bd 1a0e 013d
00000320: 109d 81bc 54b9 6e3d 0845 5dbc 5013 81bc
00000330: 980b 3f3d a47c d43c fa91 7f3d 2e30 3fbd
00000340: 60a0 953b 8030 06bb 8449 7d3d 06d5 29bd
00000350: 20c5 46bc 20b8 1dbc 6cd2 1f3d 50dc 693c
00000360: 424d 393d 4076 bfbb a699 523d 78a4 7c3c
00000370: 36ad 37bd c2d8 433d 3ea4 76bd 4c4c 96bc
00000380: 5e86 5f3d d817 6a3d 9ecf 10bd 120b 393d
00000390: de0b 4e3d 464c 44bd 828d 52bd 5895 363d
000003a0: 000c 12b9 ccb2 8cbc 6044 62bb 50ff 423c
000003b0: dc32 8c3c 0c1e 7abd 9c4b 46bd 9ee1 68bd
000003c0: 3e61 213d d8a7 843c b277 16bd f642 44bd
000003d0: 2c70 453d b81b 1c3c d255 38bd a8bd d8bc
000003e0: 98f0 5abd e87b 913c 005e 103b 0e9f 22bd
000003f0: ded9 753d 8c9e 34bd bafb 37bd 7e5b 5f3d
-0.051048405 -0.049117327 -0.012401365 0.033536747 -0.04727774 -0.036452137 -0.008128777 -0.020396702
-0.04869902 0.048868693 -0.045017928 0.009364091 -0.010403492 0.057387874 -0.028637722 -0.04750225
0.06126611 -0.009029672 0.0014813691 -0.015398636 0.0062358677 0.021771446 -0.02641359 -0.057882138
-0.022241376 -0.056391492 -0.040441833 0.036648087 -0.013023734 0.013042234 -0.00849285 -0.045215845
-0.056872346 0.043469593 0.043186903 -0.04521253 0.04930889 0.04851895 -0.0043360814 0.016710483
-0.012273274 -0.012078255 -0.034536794 -0.016306333 0.009427302 -0.029463306 -0.058562823 -0.029908024
0.05968085 0.041814737 0.0116230175 -0.035969354 0.05285459 0.033883937 -0.039773792 0.052850462
0.02012916 -0.013813049 -0.03379517 -0.044109263 -0.021828339 -0.059764095 0.024563253 0.050752014
-0.021849878 -0.01850693 -0.04722651 -0.030367196 -0.041977175 -0.022027947 -0.05811111 0.022330813
0.028804116 -0.05349862 0.02565182 -0.017266504 0.06087987 0.03174617 -0.044614866 0.037307598
0.0029998422 0.0052334145 -0.04651072 -0.04201483 0.057218567 -0.04572799 0.016903989 -0.014999323
-0.048106126 -0.03308516 0.030604132 0.029840052 0.019733004 0.0030671507 -0.020805858 0.007785529
0.026111364 0.00341966 0.028923973 -0.052821763 -0.058198594 -0.0073509067 0.012011953 0.05738675
0.05412204 -0.03202065 -0.0019841492 -0.050141305 -0.0076999217 -0.04279524 -0.007559754 0.060024917
0.011708081 0.03486646 -0.010813057 -0.013813704 0.019225337 -0.060672566 0.0040012896 0.017432444
0.013070069 0.0316882 -0.058172658 0.012061439 0.023930237 0.028572842 -0.024140447 0.00084522367
-0.060374036 -0.06192542 -0.051057488 0.022800513 -0.061308056 0.05508464 -0.023554467 -0.009704582
-0.047647618 0.060180843 -0.002138488 0.0056899935 -0.042753384 0.009162694 0.049263597 0.04042474
-0.00719399 -0.04038664 0.06198696 -0.054478265 -0.02268631 -0.026893176 0.05609949 -0.05623298
0.04724946 0.03588546 -0.014796644 -0.034923337 0.007676035 -0.031325996 0.017190397 0.039585344
0.014318943 0.04869932 -0.053206764 0.002425924 0.043679483 0.055756718 0.042678088 0.037319586
0.023787685 0.053415485 -0.015060194 -0.020944767 -0.0225107 -0.043110117 0.0394426 0.0540609
0.028772078 -0.0065147504 0.011577196 -0.00964243 0.03254117 -0.035067804 0.005421281 -0.004767373
0.06048967 -0.009143487 -0.0257482 -0.031923667 -0.021319158 -0.037360676 0.03653445 0.040649466
0.008708917 0.058373116 0.0005939901 -0.007658556 0.062047765 -0.052632086 -0.04330004 0.03150759
-0.015821964 0.05828221 -0.013505228 -0.01575628 0.046641916 0.02593834 0.062395073 -0.046676807
0.0045662373 -0.0020475686 0.061837688 -0.04146292 -0.012131959 -0.009626418 0.039019033 0.014273718
0.045239694 -0.005842954 0.05141606 0.015420072 -0.04484292 0.04781414 -0.060215227 -0.018346928
0.054571502 0.057151645 -0.03535425 0.045176573 0.050304286 -0.047924303 -0.051404484 0.04457602
-0.00013928115 -0.0171751 -0.0034525618 0.011901692 0.017114095 -0.06106381 -0.04841195 -0.05685579
0.039399378 0.016193315 -0.036735244 -0.04791542 0.04820268 0.009528093 -0.04500372 -0.026457623
-0.053452104 0.017759278 0.0022028685 -0.039702468 0.060022227 -0.044096515 -0.0449178 0.054530613

2.bias f4 [128]
00000000: bcbd 823c 3b57 483d 16ed 533d 13f1 f0bc
00000010: 0c93 a9bc b18c 7d3d 2c7f 523b e430 8d3c
00000020: 5447 cfbc 972b a13d 6ae4 40bd 7582 b33d
00000030: ba37 f5bd c4ef b1bc 38b9 033c d640 293d
00000040: 4e58 16bc 57a5 abbc e500 1f3c 601a 823d
00000050: 42dd 63bd 46fe 973d 5cca ef3c 00cd 9fbc
00000060: 148f a33c 080c 73bd 20fd c13d 64a3 503d
00000070: f33f 48bc 587d 04bc 6827 203c 566a 40bd
00000080: 00b8 a1bb e44a 17bd 3c31 8f3c 7536 68bd
00000090: 02ec 153d 4237 46bd 1607 b2bd 4a96 483d
000000a0: 9151 363d dac3 723d 0084 b6bb 8cc4 90bc
000000b0: 40a1 76bb ee76 aa3c 5136 c4bc c823 4b3c
000000c0: a808 7f3d c4dc bfbd 760a c13d ee43 46bd
000000d0: f6cb d9bc 10ed 75bc 741e 32bc a081 723b
000000e0: 000a 75bd c6d7 1a3d 8c59 f4bd af3c 69bc
000000f0: 6878 01bd 60c4 0e3b b4b4 b8bc 858c 38bb
00000100: 3807 1b3c d0ba b2bb 0a25 4ebd b84c ad3c
00000110: 6ca2 00bd d29c 71bd e2b4 4d3d 4cdb 0e3d
00000120: 6e3d 243d 6bac 00bd baae 1ebd 9c89 2c3b
00000130: c3a7 21bd 2ff4 453d dae6 2dbd b0b6 783d
00000140: 8850 6dbc 6448 833d 4e1a 633d fa08 20bd
00000150: 1acf 99bd d833 a03d 56f0 58bd b89c f5b9
00000160: 647d e53c c062 d8bc 48d7 3e3c 4ccf ee3c
00000170: 20bc 4b3d ec12 93bc e8dd 65bd 68b9 5dbd
00000180: a79c bdbd 2684 963a 9235 143d 8ca3 2ebd
00000190: 04a1 65bd 1123 b83d d63f 7c3d 40d6 e3bc
000001a0: 605d 643b e0e8 e9bb 05d2 623d d958 35bd
000001b0: ad76 02ba 359f 9e3d 6f13 aebd 800a 6c3a
000001c0: 9fb7 3e3d 64d7 4abd 840d f13c e0ae c73b
000001d0: ac30 003d a046 55bc e5d0 743d d048 f4bd
000001e0: 6c4e b73b 2b76 963d 4af9 cbbd d041 753b
000001f0: d0eb 84bb a65b 97bd 32a2 32bd 30e7 1d3d
0.015959613 0.048911314 0.051739775 -0.029411828 -0.0207 0.061901752 0.0032119257 0.017235227
-0.025302567 0.07869642 -0.047092833 0.08765117 -0.119735196 -0.021720774 0.008039765 0.041321598
-0.009176327 -0.020952864 0.009704803 0.06352687 -0.05563093 0.07421546 0.029271297 -0.019506931
0.019965686 -0.059337646 0.09472108 0.05093707 -0.012222278 -0.008086525 0.00977502 -0.04697641
-0.0049352646 -0.036936656 0.017479531 -0.05669256 0.036602028 -0.04839254 -0.08692758 0.04897145
0.04451138 0.05926881 -0.005569935 -0.017671846 -0.0037632734 0.020808663 -0.023951681 0.012398668
0.062264115 -0.093682796 0.094258234 -0.048404627 -0.026586514 -0.015010133 -0.010871518 0.0037003532
-0.05982399 0.037803434 -0.11931142 -0.0142356595 -0.03160897 0.002178453 -0.022547103 -0.0028159928
0.00946217 -0.0054543987 -0.050328292 0.021154746 -0.031404898 -0.058987446 0.05022133 0.034877107
0.040097646 -0.03141443 -0.03874085 0.0026327139 -0.03946663 0.048328575 -0.042456485 0.0607211
-0.014484532 0.06410292 0.055445008 -0.03907106 -0.075102046 0.078223884 -0.052963577 -0.00046846806
0.028013892 -0.026414275 0.011648007 0.029151581 0.049739957 -0.017953359 -0.05611983 -0.054131895
-0.09258395 0.0011483475 0.0361839 -0.04263644 -0.05606176 0.089910634 0.061584316 -0.027812123
0.0034845695 -0.0071383566 0.05537607 -0.044274185 -0.00049767905 0.0774521 -0.084998004 0.000900425
0.046561833 -0.04952182 0.02942539 0.006093845 0.031296417 -0.013017327 0.05976953 -0.119279504
0.0055940654 0.073467575 -0.099596575 0.003742326 -0.0040564314 -0.073905274 -0.043611713 0.038550556

4.weight f4 [64, 128]
00000000: 8314 963d 91a1 eabd 3fa9 a0bd 7041 a83c
00000010: 883d a6bd e620 94bd 6a56 27be 2402 e4bc
00000020: d4b1 04bd 2fe4 25be 4895 dc3c a623 ddbc
00000030: 5c58 b7bc c340 40bd 39c9 8a3d 0804 dc3c
00000040: e21c 63bd cc03 2dbe 3024 0ebe c8ba 0fbe
00000050: 5840 6c3c e3cf 47bc ca11 4abd 50fe f5bc
00000060: 3651 0ebe dc5b 92bc ce03 23bc d216 c6bd
00000070: e6cc d1bc d290 0b3d 06d9 a4bd f165 9b3d
00000080: 80dc d73c 1d0a aa3d e591 ae3d 1208 6fbd
00000090: d91e b33d d07a 343c f366 57bd 5875 90bd
000000a0: bed3 e3bd b86f 8d3c cd19 813d ba90 383d
000000b0: 5ede 2ebd d202 e5bd 5aa1 553d 9883 013d
000000c0: 9444 5fbd d0bc 6b3c a40a aebb a8ce 7abc
000000d0: 86e8 543d 1280 4b3d 9056 b33b 5029 81bc
000000e0: fa7a 713d 3c5a 31be 507a 823c 5120 85bd
000000f0: ce67 333d 8c16 e23c feaf 8abd 00e4 223b
00000100: 30d9 a2bd ec82 f5bc e800 7fbc 75a5 a93d
00000110: 300a e23b 786e 25bc cf54 26be 5ae1 96bd
00000120: 0355 f9bd b420 a33c 28c4 8bbd 1ede 02be
00000130: 03cc 2abd 800e 7aba 32c2 79bd 1869 df3c
00000140: e7ef ad3d 4779 2fbd 2405 17bd 0059 fbb9
00000150: 6641 5abd cf91 15be 9228 373d 9eea 65bd
00000160: 124b 6f3d 4066 c03c 6f71 943d 2524 843d
00000170: 96eb 84bd 13e6 aa3d b9f3 9dbd 4926 ac3d
00000180: c59b 12bd 7023 2dbc bf6e 8e3d 5e2b abbd
00000190: 662f 293d a8b4 3bbd f5a6 803d 3082 8c3b
000001a0: 3504 aabd f407 c6bc 6394 25be bce5 c3bc
000001b0: fdcc f7bd 7945 d9bd eea3 56bd 1451 7ebd
000001c0: 9df2 0fbd 0117 a63d 8cf0 3ebd 66f5 1f3d
000001d0: a31a a53d e8b2 8d3c e43c 5ebd 52db 193d
000001e0: 4d03 18be 5f00 97bd 6534 ad3d 507e 86bb
000001f0: 5e72 7e3d b28c 223d b887 90bd 4a50 9dbd
00000200: 5580 82bd 01c6 7dbb 1863 1b3c 2847 283c
00000210: 7f26 58bd b0e2 53bc 00d6 733b 20e9 d73b
00000220: 6b82 973d ed60 82bd 405e 05bc 187a 18bd
00000230: 4282 7dbd b495 cf3c 4fe0 69bd f9e3 b33d
00000240: ba8d 243d d820 0fbe e5e2 a13c 0509 01be
00000250: b0be a9bb a2c9 05be 684d 193c e888 82bd
00000260: b058 2eba 47a8 b0bd 7d6b dd3c 2247 023d
00000270: f630 debd e060 71bb 9b26 963d 45a1 47bd
00000280: 0d04 a83d cdae ab3d 9268 66bd 1ea4 80bd
00000290: 1277 413d 74fd ecbc a949 11bd c8d5 e63b
000002a0: 1599 78bd a195 0bbd 3d59 983d 8085 3cba
000002b0: e001 153b 6c59 a4bd 88f8 7abc 54c1 5dbd
000002c0: 0829 db3c e0e6 f33c 4f44 88bd 45ac 96bd
000002d0: 1ed1 223d 1ecf 1f3d a308 873d 706a 413c
000002e0: 8621 9bbd dc40 2f3c 8c60 b3bd 0458 09bd
000002f0: 1c76 063d b1e2 9fbd 402f ea3b 0235 1a3d
00000300: eece 263d b0d0 4ebd 405d b8ba f871 06bd
00000310: 5e5f 3d3d 74f8 7ebd 31ec dbbc 806b b2bd
00000320: d6af fdbd f209 153d fed5 603d e366 60bd
00000330: fd04 32bd d8fd b93c f695 adbd 51c7 9c3d
00000340: 886c 28bd 105e 0bbe 7d93 39bd 2c24 0f3d
00000350: a457 71bd 3f6b fbbd 70fe aabb 5bd9 09bd
00000360: e460 c3bc 2789 96bd 60a2 023d 3b85 2bbd
00000370: 144f a4bc 42a9 0a3d 1fcc a1bd 1005 fbbb
00000380: c0a4 89bb 70a8 aabd f49c a43c 08ca 59bc
00000390: 3807 2ebd f693 e1bd 27c7 2abd 3091 973b
000003a0: 68df b73c 70db 193c 7094 04be 508c 8dbd
000003b0: db74 bbbd a6df babb 1542 8dbd 50c1 eebc
000003c0: 1d97 c23c cef6 90bd dfa2 953d 1b20 9f3d
000003d0: 80e8 49bb 290c af3d b020 bf3a 8a1c 26bd
000003e0: 2f13 a8bd 88d4 c73c a74a 9cbd a25e 02bc
000003f0: 4b78 40bd 2410 bbbc ecf3 b33c fb2a 00bd
0.07328131 -0.114565976 -0.07844781 0.020539016 -0.08117205 -0.072328374 -0.16341558 -0.027833052
-0.032396153 -0.16200326 0.026926652 -0.026994538 -0.022381 -0.04693676 0.067766614 0.026857391
-0.055447467 -0.1689598 -0.13880992 -0.14036095 0.014419638 -0.01219556 -0.04933337 -0.030028492
-0.13898167 -0.017866068 -0.009949638 -0.096723214 -0.025610399 0.03407366 -0.080492064 0.07587803
0.02635026 0.0830271 0.08523921 -0.058357306 0.08746118 0.011015609 -0.052588414 -0.070536315
-0.11124371 0.017265186 0.06303749 0.045059897 -0.042692535 -0.111821786 0.05215583 0.03161964
-0.05450876 0.014388278 -0.005311327 -0.01530806 0.051979564 0.049682684 0.0054729655 -0.01576677
0.05895517 -0.17319578 0.015927464 -0.065003045 0.043800168 0.027598642 -0.06771849 0.0024855137
-0.079515815 -0.029969655 -0.015564181 0.082835115 0.006898187 -0.010097139 -0.1624329 -0.07367201
-0.12174418 0.019913055 -0.06824523 -0.12780043 -0.041698467 -0.0009538904 -0.060976215 0.027271792
0.08493023 -0.04284027 -0.036870137 -0.0004794076 -0.053285025 -0.14606403 0.044716425 -0.05613195
0.058421202 0.023486257 0.07248198 0.064522065 -0.06490247 0.083446644 -0.07712502 0.0840574
-0.035793085 -0.010567531 0.06954717 -0.08357881 0.04130497 -0.045826584 0.062818445 0.0042879805
-0.08301584 -0.024173714 -0.16169886 -0.023913257 -0.12099645 -0.10608954 -0.05240243 -0.06208904
-0.035143483 0.081098564 -0.046616122 0.03905239 0.08061721 0.017297223 -0.05425729 0.037562676
-0.14845009 -0.07373118 0.08457259 -0.004104413 0.062120788 0.03968496 -0.07057136 -0.076813295
-0.06372134 -0.0038722756 0.009484075 0.010270871 -0.052771088 -0.0129324645 0.0037206411 0.00658907
0.07397922 -0.063661434 -0.008140147 -0.037225813 -0.0618918 0.025339939 -0.057098683 0.08783717
0.040174223 -0.13977373 0.019761512 -0.12601097 -0.0051802024 -0.13065198 0.009356834 -0.06373769
-0.0006650789 -0.08625846 0.027028793 0.03180612 -0.10849182 -0.0036831424 0.07331582 -0.048737783
0.082038976 0.0838295 -0.05625207 -0.06281303 0.047232695 -0.02892945 -0.03547064 0.0070445277
-0.060692865 -0.034078244 0.07438896 -0.0007191524 0.0022736713 -0.08024868 -0.0153180435 -0.05413945
0.026752964 0.029773176 -0.06653654 -0.073570766 0.03975021 0.03901588 0.06593444 0.011805162
-0.075747535 0.010696616 -0.08758649 -0.033531204 0.03282748 -0.0780691 0.007146746 0.03764821
0.040724687 -0.05049199 -0.0014065877 -0.032823533 0.046233527 -0.062248662 -0.026846023 -0.0871191
-0.12387054 0.036386438 0.05489158 -0.05478562 -0.04346179 0.02270405 -0.084758684 0.07655204
-0.04111913 -0.13610101 -0.04530667 0.034946606 -0.05892147 -0.12276315 -0.0052183196 -0.033654552
-0.023849912 -0.073503785 0.031893134 -0.041875105 -0.020057239 0.033852823 -0.07900261 -0.0076605156
-0.004200548 -0.08332908 0.020094372 -0.013292797 -0.042487353 -0.110145494 -0.041693833 0.004625462
0.022445396 0.009390697 -0.1294725 -0.06911528 -0.09153148 -0.0057029305 -0.0689737 -0.029144913
0.023753697 -0.07078324 0.07306456 0.077697955 -0.0030808747 0.08547241 0.0014581885 -0.04055456
-0.08206784 0.024393335 -0.07631426 -0.0079571325 -0.04698972 -0.022834845 0.021966897 -0.03129099

4.bias f4 [64]
00000000: 43c2 fbbc a5e8 06be 9cc8 fb3d 34ef b4bc
00000010: 39f2 723c e484 fd3d 0237 153e 2658 08bc
00000020: 9681 1b3b dc89 143e 10de 853d 787c 1cbe
00000030: 4b86 8fbc 816e 2e3e 24a1 71bb 821e ab3d
00000040: 61e6 243d 636c 133e 5a2d 6cbd 75b2 54bd
00000050: 8e3f 2b3c 8df7 973d 49b7 fb3b 0cca 2b3e
00000060: 4c4a 2dbd d3f9 1dbd 603a 29bd 81ab 8f3d
00000070: 0c62 84bd 2649 99bd 436a a33d b1b1 bd3d
00000080: 9005 603d 7fff 86bd 291b a23d cc2e a13c
00000090: 3c6e 2d3e adff 483d 0aa2 6d3b 484f 1bbc
000000a0: 9e34 853d 1165 49bd 4892 ca3c 0362 d2bd
000000b0: 9338 16bd 3904 98bd 1712 b83c 7299 ffbd
000000c0: c111 c23d d521 08be 2cae 9ebd 288b 04bd
000000d0: 0039 bfbb 444a 8f3c 1c7c b6bd c5d2 933d
000000e0: 4779 943c f2d7 ef3d 7ec8 6d3c 8017 473c
000000f0: 842d d73c ff55 1cbd aa4b 403c ad1e 28bd
-0.03073228 -0.13174684 0.122941226 -0.022086717 0.014828258 0.123788625 0.14571765 -0.0083217975
0.0023728362 0.14505714 0.06536496 -0.15281856 -0.01752009 0.17034341 -0.003686973 0.08355428
0.04025877 0.14396815 -0.057660438 -0.051928002 0.010452164 0.074202634 0.0076817614 0.16776294
-0.042307183 -0.03856833 -0.041315436 0.07015134 -0.064640135 -0.07484655 0.07979252 0.092624076
0.054692805 -0.06591701 0.07915337 0.019675635 0.16936582 0.049071956 0.0036259913 -0.009479351
0.065041766 -0.04916865 0.024727955 -0.102726005 -0.036675047 -0.074226804 0.022469563 -0.12480439
0.094760425 -0.13294156 -0.077480644 -0.032359272 -0.0058356524 0.017491467 -0.08910391 0.072179355
0.018124236 0.1171111 0.014513133 0.012151599 0.02626682 -0.03816795 0.01173679 -0.04104488

6.weight f4 [1, 64]
00000000: 36f9 333d b766 85bd b931 e33d 8693 e93d
00000010: b832 653d 5cbb 623d 5c1f 673d 31f0 4b3d
00000020: 0093 46bd b027 013e 9bf9 563d 308e b83c
00000030: 914b 9ebc 9829 bc3d 6e2b bbba ae3e f63d
00000040: e5e7 43bd 2181 e63c e0a4 7e3d 5477 d43d
00000050: 4c6b 2d3d 1244 8dbd 2e94 b13c 71e1 ed3d
00000060: 5e48 ee3d face cfbc d01e 4dbd 67e4 cb3d
00000070: 200f 29bc 863f e6bc 8cb3 ca3d 888d 623d
00000080: 3dd5 383d d8b1 b8bd 7509 213d 380d e33d
00000090: 7689 bd3d fb6a 8d3d 0fdc a73b 746a 3d3d
000000a0: d895 e83d c053 dabb ec7f 0e3d ae31 46bc
000000b0: ec51 bd3d 3096 043c 2dc4 743d 8bbc 823b
000000c0: d04b f83d 9fb4 60bd bd6a de3c c092 fd3b
000000d0: 00ef 61bd d046 6d3d d07e 093c 2576 493d
000000e0: 90ea 1fbd 1c33 b13d dd35 0c3e a035 48bd
000000f0: f0cc df3d b535 7c3d dd96 b4bc 4f26 83bd
0.043938838 -0.06513732 0.11093468 0.11405091 0.055956572 0.05535446 0.05642639 0.04978961
-0.048480034 0.12612796 0.052484136 0.022528738 -0.019323142 0.09187621 -0.0014279911 0.12023674
-0.047828574 0.028137745 0.062168956 0.103743225 0.042338654 -0.06897749 0.021677103 0.11615265
0.11634897 -0.025367249 -0.050078213 0.09955674 -0.0103185475 -0.028106462 0.09897527 0.055310756
0.045125235 -0.09018296 0.03931566 0.11086506 0.09254734 0.069051705 0.0051226686 0.0462441
0.113567054 -0.006662816 0.034789965 -0.0120968055 0.09244141 0.008092448 0.0597574 0.003989761
0.12123835 -0.054859754 0.027150506 0.007738441 -0.05515957 0.05792886 0.008392051 0.049184937
-0.039042056 0.086523265 0.13692422 -0.048879266 0.109277606 0.061574657 -0.022044593 -0.06403791
